best_model_baseline_hard.pth (torch, 149708 bytes, 8 tensors)

conv1.weight f4 [8, 3, 3, 3]
0	0xbed78d89	-0.4210017
1	0xbe262c7c	-0.16227907
2	0x3e7a3b21	0.24436618
3	0xbe1574a6	-0.14595279
4	0x3e932b81	0.28744128
5	0x3eb40342	0.35158736
6	0xbdd59f1d	-0.10430739
7	0x3ea196f3	0.31560478
8	0x3ea9000d	0.3300785
9	0xbed5bdb8	-0.41746306
10	0xbe25cdbb	-0.16191761
11	0x3d911d6f	0.07085692
12	0xbec005d2	-0.3750444
13	0x3ea1da7f	0.31612012
14	0x3ebed41e	0.37271208
15	0xbe1b6e1b	-0.1517872
16	0x3f0a13c1	0.5393639
17	0x3eabce3f	0.3355579
18	0xbe8d356f	-0.2757983
19	0xbe176a38	-0.14786613
20	0x3d1afa76	0.037836514
21	0xbe34b8e4	-0.17648655
22	0x3b212958	0.0024591293
23	0x3eb09f75	0.34496656
24	0xbe3fd989	-0.18735327
25	0x3ef48d1d	0.4776391
26	0x3e96c5f1	0.29447892
27	0x3ef02eb6	0.46910638
28	0x3ebe933a	0.372217
29	0xbda72390	-0.0816108
30	0x3ee6f9a1	0.45112327
31	0x3e9fc248	0.31202912
32	0x3e269808	0.16268933
33	0x3e807f71	0.2509723
34	0xbc6008bd	-0.013673958
35	0x3d4f6f0f	0.050643023
36	0x3ecea20f	0.40358016
37	0x3f18c300	0.59672546
38	0x3e1d6665	0.15371092
39	0x3f41ed9e	0.757532
40	0x3eac233b	0.3362063
41	0x3e29332e	0.1652343
42	0x3e6487ba	0.223174
43	0x3e1b34d2	0.15156868
44	0x3e110db7	0.14165388
45	0x3ee6798a	0.45014602
46	0x3eaf85b0	0.34281683
47	0xbe35d726	-0.17757854
48	0x3ece3c9d	0.4028062
49	0x3e1e6872	0.1546953
50	0xbd03efff	-0.0322113
51	0x3e32fe65	0.17479856
52	0x3d5a04ea	0.053227343
53	0xbd85e695	-0.06538121
54	0xbe01fb4d	-0.1269352
55	0xbe7aaace	-0.2447922
56	0x3d9ffb71	0.078116305
57	0x3cad2c37	0.021139247
58	0xbde10188	-0.1098662
59	0xbe1df716	-0.15426287
60	0x3ea7e203	0.3278962
61	0x3dfd0d49	0.123560496
62	0x3e7b34d0	0.24531865
63	0xbd8825b5	-0.06647817
64	0xbe6bd8c2	-0.23031905
65	0xbe480730	-0.19533992
66	0x3e156a8a	0.14591423
67	0xbe56ce0c	-0.20977038
68	0xbe511086	-0.2041646
69	0x3dc5f528	0.096659005
70	0x3e8b61f6	0.27223176
71	0xbc0c2d63	-0.008555743
72	0x3e130095	0.14355691
73	0x3d1e742f	0.03868502
74	0xbd381b02	-0.04494763
75	0x3e7b696b	0.24551933
76	0xbe1e3ee4	-0.15453678
77	0xbde1bbd3	-0.11022153
78	0x3e8d98b3	0.27655563
79	0xbcc318cc	-0.023815535
80	0x3e804270	0.25050688
81	0xbe870c8f	-0.2637677
82	0xbd8ca840	-0.06868029
83	0xbe021e67	-0.1270691
84	0xbd83931e	-0.06424545
85	0x3eb9c4a7	0.36282846
86	0x3e8898b5	0.26679006
87	0x3e8dd865	0.27704158
88	0x3f1ea768	0.6197419
89	0x3dd84370	0.10559738
90	0x3d6ed82e	0.058311634
91	0xbd5a25b6	-0.05325862
92	0x3e327f39	0.17431344
93	0x3e042c67	0.12907563
94	0x3f0835a9	0.5320688
95	0x3ec7a05b	0.3898953
96	0x3e34086f	0.17581342
97	0x3f2a3eb8	0.6650195
98	0x3ed27c90	0.4111066
99	0xbdd6b7a0	-0.104842424
100	0xbe0d1555	-0.13777669
101	0xbe498d2c	-0.19682759
102	0xbe08cb51	-0.13358809
103	0x3f00471d	0.5010851
104	0x3d7c69ca	0.061624326
105	0xbcc2fa98	-0.023801133
106	0x3f0062b4	0.5015061
107	0x3e56ef4b	0.2098972
108	0x3e88a82d	0.26690808
109	0x3e9121d8	0.28346133
110	0x3eaae58c	0.33378255
111	0x3e1b7a0c	0.15183276
112	0x3ed81e55	0.42210642
113	0x3ef7ef9e	0.48425
114	0xbdb25ea5	-0.08709458
115	0x3cd0007e	0.02539086
116	0x3e1da9b1	0.15396763
117	0x3e5ade05	0.21373756
118	0x3f2ce9e0	0.67544365
119	0x3f1471ef	0.5798635
120	0x3ed74ebb	0.42052254
121	0x3f49f54c	0.7888992
122	0x3ee5e83b	0.4490374
123	0x3c801666	0.01563568
124	0x3eea07a8	0.45708966
125	0x3d4c52ef	0.04988378
126	0x3c8d86b8	0.017276153
127	0x3efd0c5d	0.49423495
128	0xbcd55a13	-0.026043927
129	0x3ead3738	0.3383119
130	0x3f21593a	0.63026774
131	0x3eac6565	0.33671108
132	0xbe1926e9	-0.1495625
133	0x3e0fd90f	0.14047645
134	0x3df5d0e5	0.12002734
135	0x3dfbd004	0.12295535
136	0xbe4552e4	-0.19269902
137	0xbe87c95d	-0.26520815
138	0x3e033cca	0.12816158
139	0xbda5adc7	-0.08089786
140	0xbe51d8e4	-0.20492893
141	0x3ec29965	0.38007656
142	0xbe0a615f	-0.13513707
143	0xbe6a2f68	-0.22869647
144	0x3ea7299f	0.32648942
145	0x3dfa9462	0.12235333
146	0xbe9e52be	-0.30922502
147	0x3def47a9	0.1168359
148	0x3e3363d3	0.17518549
149	0xbe04ef4b	-0.12981908
150	0x3e4a537a	0.19758406
151	0x3dde06c5	0.10841135
152	0xbe90e13e	-0.28296846
153	0x3e8a1e59	0.26976278
154	0xbe200df6	-0.15630326
155	0xbe2b94f3	-0.16756038
156	0x3e3bb315	0.18330033
157	0xbdcee745	-0.10102705
158	0xbea44322	-0.32082468
159	0x3da0f6bb	0.0785956
160	0x3e2876a1	0.16451503
161	0xbe6e97fa	-0.23300162
162	0xbdef5192	-0.1168548
163	0xbe0928e0	-0.13394499
164	0x3ea38060	0.3193388
165	0xbe8622e9	-0.2619851
166	0xbdff427f	-0.12463855
167	0x3e021a58	0.12705362
168	0xbde9234b	-0.11383685
169	0x3e0edb1c	0.13950771
170	0x3e7fc2d9	0.24976672
171	0xbef993be	-0.4874553
172	0x3d1acb38	0.03779146
173	0x3e063fa8	0.1311022
174	0xbe89682d	-0.26837292
175	0xbc9148ed	-0.017734969
176	0x3eaedfdd	0.3415517
177	0xbd9996a2	-0.07499434
178	0x3e213745	0.1574374
179	0x3ec8a8fe	0.3919143
180	0xbebf4e62	-0.3736449
181	0xbe43dd3c	-0.19127363
182	0x3ea104f6	0.31449097
183	0xbe50c291	-0.20386721
184	0xbe25e1df	-0.16199444
185	0x3e33337f	0.17500113
186	0xbe004a99	-0.12528457
187	0x3eafaaae	0.34309906
188	0x3ec50002	0.38476568
189	0x3f1490d2	0.5803348
190	0x3f26acd7	0.6510748
191	0x3da2656e	0.079295024
192	0x3e8a3ebb	0.27000985
193	0x3e4b569e	0.1985726
194	0xbea42bb1	-0.32064584
195	0xbe1aea4c	-0.1512844
196	0xbe4f0651	-0.20217253
197	0xbf046283	-0.51712817
198	0x3f5eac76	0.86981905
199	0x3edc3675	0.43010297
200	0x3e82b1eb	0.25526366
201	0x3eed8447	0.46389982
202	0x3e912044	0.2834493
203	0xbe41c49f	-0.18922661
204	0xbd5856a3	-0.052817
205	0xbee94494	-0.45560133
206	0xbedb4aa4	-0.42830384
207	0x3f4e928d	0.8069237
208	0x3f0d1386	0.55107915
209	0x3e2fcfa5	0.17169054
210	0x3e9892d5	0.29799524
211	0x3e2fa3cf	0.17152332
212	0xbe827b0e	-0.25484508
213	0xbe262aca	-0.1622726
214	0xbeeeea2a	-0.46663028
215	0xbe9d15fc	-0.30680835

conv1.bias f4 [8]
0	0x3e063982	0.13107875
1	0xbdf7a3ae	-0.12091766
2	0x3eccf31a	0.40029222
3	0xbe28e60b	-0.16494004
4	0xbeb859cf	-0.3600602
5	0x3ed2c0aa	0.41162616
6	0x3e7981ff	0.24365996
7	0x3d499ed7	0.049223747

conv2.weight f4 [16, 8, 3, 3]
0	0x3e0de6d3	0.13857584
1	0xbd9ac7d7	-0.07557648
2	0xbe59d574	-0.21272832
3	0xbcbeb259	-0.023278402
4	0x3da199f3	0.078906916
5	0xbdd19e82	-0.10235311
6	0xbdf4e6e1	-0.11958099
7	0x3cac3301	0.021020414
8	0xbe2135f7	-0.15743242
9	0x3e3485e6	0.17629203
10	0xba9af507	-0.0011822291
11	0x3dd0400b	0.10168465
12	0x3d3dd25e	0.0463432
13	0xbdf83db0	-0.12121141
14	0xbdb3c4be	-0.0877776
15	0xbd9df7b1	-0.07713259
16	0x3d6ba33e	0.057528727
17	0x3df8bd72	0.12145509
18	0xbe106707	-0.14101802
19	0xbe0a5f81	-0.13512994
20	0x3ceae757	0.028674765
21	0x3b0ed635	0.0021795158
22	0xbe769b9f	-0.24082802
23	0x3db47a4c	0.08812389
24	0xbe91cb43	-0.2847539
25	0xbf0743d0	-0.5283785
26	0xbe2fdacd	-0.1717331
27	0x3dcd5edd	0.10027859
28	0x3e00a7b5	0.12563975
29	0xbd1fb561	-0.038991336
30	0xbd56c2fe	-0.052432053
31	0x3cfd6819	0.030933427
32	0x3e0b7049	0.13617052
33	0xbd95ff02	-0.073240295
34	0xbd37c140	-0.044862032
35	0x3d75de04	0.060026184
36	0x3da8fddd	0.082515456
37	0x3d312eeb	0.043257635
38	0x3dce4f40	0.100737095
39	0xbd88867b	-0.06666275
40	0x3cae4af7	0.02127598
41	0x3d98bf1d	0.07458327
42	0x3d835205	0.06412128
43	0x3deb4929	0.114885636
44	0x3d8c227f	0.06842517
45	0xbdea924b	-0.114536844
46	0xbeb5a9b9	-0.3548105
47	0x3c93568a	0.017985601
48	0xbc001c24	-0.007819209
49	0xbf0eb07d	-0.5573805
50	0x3dd08310	0.10181248
51	0x3e4ceeeb	0.20013015
52	0xbec6af13	-0.38805446
53	0x3d114447	0.035465505
54	0x3df51192	0.11966242
55	0xbdff46d3	-0.124646805
56	0xbe340c5b	-0.17582838
57	0x3c3b826c	0.011444669
58	0x3c20f157	0.009823165
59	0xbe866731	-0.26250604
60	0xbcae6564	-0.021288581
61	0x3e2e865a	0.17043439
62	0xbe972afb	-0.2952498
63	0x3dcd23c6	0.10016589
64	0xbdd47882	-0.103745475
65	0x3b1199b4	0.0022216858
66	0xbda01ba8	-0.07817775
67	0xbea1d017	-0.31604072
68	0xbd165fe5	-0.036712546
69	0x3e75467a	0.23952666
70	0xbda5c8e4	-0.080949575
71	0x3dca3143	0.09872677
72	0x3e93204b	0.28735575
73	0xbe03531a	-0.1282467
74	0xbe532818	-0.20620763
75	0x3e2445a5	0.16042192
76	0xbe84b01e	-0.25915617
77	0xbe8f767d	-0.28020087
78	0x3d5eb0bb	0.054367762
79	0xbe9c2b9b	-0.30502018
80	0x3a245661	0.0006268975
81	0x3d1887ff	0.03723907
82	0xbd8e0f66	-0.06936531
83	0xbe2d62ba	-0.16932192
84	0x3e2f25d7	0.17104279
85	0x3d6ab2c7	0.0572994
86	0xbe7a3e50	-0.24437833
87	0x3e59ad7b	0.21257584
88	0x3d590a5b	0.05298839
89	0xbe6f7f43	-0.2338839
90	0x3d23625b	0.03988872
91	0x3ebc49cf	0.3677506
92	0x3e74693d	0.2386827
93	0xbe03a059	-0.12854137
94	0x3e6c8a27	0.23099576
95	0x3e8982ac	0.26857507
96	0xbe6b5fbc	-0.22985739
97	0x3e920adf	0.2852392
98	0x3de4bb5a	0.11168547
99	0x3e82fe80	0.25584793
100	0x3d153896	0.036430918
101	0xbe8190a0	-0.25305653
102	0x3e085444	0.13313395
103	0xbddff381	-0.109351166
104	0xbe3d550d	-0.18489476
105	0x3dee845e	0.11646341
106	0xbd299a0b	-0.041406672
107	0xbdae1898	-0.08500785
108	0x3de02877	0.10945218
109	0xbdb12f60	-0.08651614
110	0xbe62b1a4	-0.22138077
111	0x3e340952	0.1758168
112	0xbe3c6c3c	-0.18400663
113	0xbe9e17a0	-0.308774
114	0x3e4e7e23	0.20165305
115	0xbe569d36	-0.20958409
116	0xbe8b5e55	-0.27220407
117	0xb8e08b57	-0.000107071064
118	0x3e61d41a	0.22053567
119	0x3e37f54c	0.17964667
120	0x3ddf71d7	0.10910385
121	0x3e71d157	0.23615013
122	0x3e059689	0.13045706
123	0x3dcf69c3	0.10127594
124	0x3e758391	0.2397597
125	0xbcfc26c1	-0.030780198
126	0x3d7e01ca	0.062013425
127	0xbea40c4e	-0.32040638
128	0xbdca7de2	-0.098872915
129	0x3de01476	0.109414026
130	0xbe4284e2	-0.18996003
131	0xbd186f5c	-0.037215576
132	0x3cfacb8b	0.030614635
133	0xbe9efb5b	-0.31051144
134	0xbd323689	-0.04350904
135	0x3dc0f282	0.09421255
136	0x3e06b12c	0.13153523
137	0xbda59e77	-0.080868654
138	0x3d8a6eb4	0.06759396
139	0x39ee2b56	0.00045427185
140	0xbe7e9b16	-0.24863848
141	0x3eab11b0	0.33411932
142	0x3e31b8ed	0.173557
143	0xbe25ffad	-0.16210814
144	0x3e7d12c2	0.24714187
145	0x3e7f10ac	0.24908704
146	0x3c5a2ad1	0.013315872
147	0x3d8436f0	0.06455791
148	0x3e8e1dc8	0.27757096
149	0xbec739b8	-0.38911223
150	0x3d99c1d9	0.07507677
151	0x3e9669b9	0.29377535
152	0xbe846428	-0.25857663
153	0xbe502b0c	-0.20328921
154	0x3ddaa17a	0.106753305
155	0x3dc56583	0.096385024
156	0xbe17746d	-0.14790507
157	0xbd8785fb	-0.066173516
158	0x3d505b82	0.05086852
159	0xbe9f3e8d	-0.3110241
160	0x3ddc4ffc	0.10757443
161	0x3e48f3f6	0.19624314
162	0x3e8c9dda	0.2746418
163	0x3d7c4ca9	0.061596546
164	0x3e5acff9	0.21368398
165	0x3db4ff5c	0.088377684
166	0xbe560a46	-0.20902357
167	0xbd0f2a3f	-0.0349524
168	0xbc989839	-0.018627273
169	0xbe4a65ad	-0.19765349
170	0x3e121d8c	0.14269084
171	0xbd50b9ba	-0.050958373
172	0x3e508eb6	0.2036694
173	0xbdabc4f2	-0.08387174
174	0xbd8c0aa4	-0.06837967
175	0x3e257b69	0.16160358
176	0xbdbea10f	-0.09308063
177	0xbe7765aa	-0.24159876
178	0x3e458492	0.19288853
179	0xbd4bb75c	-0.049735412
180	0xbe81f228	-0.25380063
181	0x3e2bbd13	0.16771345
182	0xbd7feee2	-0.062483676
183	0xbe4d4c7f	-0.20048712
184	0x3e37aef0	0.17937827
185	0xbd52970b	-0.051413577
186	0xbe348f58	-0.17632806
187	0x3e6f4a77	0.2336825
188	0x3cd959fb	0.026532164
189	0xbdce87c5	-0.1008449
190	0xbe7abcb2	-0.24486044
191	0x3e07510a	0.13214508
192	0x3d3451c2	0.044023283
193	0xbe8e599e	-0.27802747
194	0x3e3efc2c	0.18650883
195	0xbca4b31e	-0.020104941
196	0xbe31ee79	-0.17376126
197	0x3dbdea73	0.09273233
198	0x3e9f73a4	0.31142914
199	0x3e98ef4e	0.29870075
200	0xbeb41e64	-0.35179436
201	0x3e067af9	0.13132848
202	0x3e843086	0.2581827
203	0xbeb61fb0	-0.3557105
204	0x3e295095	0.16534646
205	0x3e7b85f3	0.24562816
206	0xbeb264f8	-0.34842658
207	0xbed5fab9	-0.4179285
208	0xbe6907cc	-0.2275688
209	0x3e39cc1d	0.1814427
210	0xbefad009	-0.48986843
211	0xbe05d68b	-0.13070123
212	0x3dc9e0b8	0.09857315
213	0xbeb01b5f	-0.34395882
214	0x3e2e3d8f	0.1701567
215	0x3e3dc1ee	0.1853101
216	0x3e418de0	0.18901777
217	0x3e1896dc	0.14901298
218	0x3e22f860	0.1591506
219	0xbb82f882	-0.0039969096
220	0x3d219e07	0.039457347
221	0x3d8de9f3	0.06929388
222	0x3e7b21a2	0.24524549
223	0xbd89b7da	-0.0672452
224	0xbe4392c7	-0.1909896
225	0xbdfc9ed8	-0.123349845
226	0x3d3d688d	0.046242286
227	0xbde3c42c	-0.11121401
228	0xbd5e25b7	-0.054235186
229	0x3c8e5dae	0.017378654
230	0xbd7e3744	-0.062064424
231	0xbd10db24	-0.03536524
232	0xbbc1ba2e	-0.005912087
233	0x3de1a9ed	0.11018739
234	0x3ad8130b	0.0016485167
235	0xbdeb0fce	-0.11477624
236	0x3e061911	0.130955
237	0x3a6b367d	0.0008972658
238	0x3bb0e3f9	0.00539827
239	0xbe53d49c	-0.20686573
240	0xbe4c7c20	-0.19969225
241	0xbe49cc66	-0.19706878
242	0xbe743468	-0.23848116
243	0xbd3884e2	-0.045048602
244	0x3dc7d0e1	0.09756637
245	0x3d5db93e	0.05413174
246	0x3dfe29fd	0.124103524
247	0xbd24b386	-0.04021027
248	0x3dde5fc6	0.10858111
249	0x3e2ba843	0.16763406
250	0x3ded97f4	0.116012484
251	0xbe247ce7	-0.16063271
252	0x3d8eeb8d	0.069785215
253	0xbd061463	-0.032734286
254	0xbc9cf034	-0.019157507
255	0xbc229b12	-0.009924667

conv2.bias f4 [16]
0	0xbe88dc20	-0.26730442
1	0x3d363bcf	0.04449063
2	0x3d99a7bd	0.07502697
3	0xbe63263a	-0.22182551
4	0xbdb259d4	-0.087085396
5	0xbd37d263	-0.044878375
6	0xbe56061d	-0.2090077
7	0xbe4d9fee	-0.2008054
8	0x3e91a483	0.28445825
9	0x3d20e277	0.039278474
10	0x3df9ef30	0.122038245
11	0xbe3f2a70	-0.18668532
12	0xbdab1488	-0.083535254
13	0x3c23672c	0.009973329
14	0xbdec669b	-0.11543008
15	0xbd94d96f	-0.07268035

fc1.weight f4 [64, 512]
0	0xbd805f7c	-0.06268212
1	0x3dd8ed7f	0.10592174
2	0x3dbee69d	0.0932133
3	0x3d45f55c	0.048329696
4	0xbd75f706	-0.060050033
5	0x3d2a9e8f	0.04165512
6	0x3d9caca6	0.076501176
7	0x3b1b9661	0.0023740756
8	0xbcc0068c	-0.023440622
9	0x3d2c0e39	0.04200575
10	0x3d94f6b6	0.07273619
11	0xbd6f6fb1	-0.058456127
12	0x3db50d54	0.08840433
13	0xbcc9cc8a	-0.024633665
14	0x3c5559cb	0.013021897
15	0xbd73126f	-0.05934375
16	0x3d74e594	0.059789255
17	0x3dc447fa	0.09584041
18	0x3cd9901c	0.026557975
19	0xbd087a8c	-0.033319995
20	0xbb90f009	-0.0044231457
21	0x3d9ea7e8	0.07746869
22	0x3acb47c0	0.0015509054
23	0xbd341854	-0.043968514
24	0xbde5f00b	-0.11227425
25	0xbda7c753	-0.08192315
26	0xbccf2332	-0.025285337
27	0x3c1769d9	0.009241545
28	0xbdc8d9e5	-0.09807185
29	0xbd65c871	-0.05609936
30	0x3c9c700c	0.019096397
31	0x3b875ab7	0.004130687
32	0x3c993116	0.018700164
33	0x3c80b5ca	0.015711684
34	0x3e056a08	0.13028729
35	0x3d6d58f5	0.057946164
36	0x3d8ed751	0.06974662
37	0x3ca83d5b	0.020537069
38	0x3c84a3b7	0.016191347
39	0x3cfa01cb	0.030518433
40	0x3d4f7516	0.05064877
41	0x3dbb87a6	0.09156732
42	0x3dd3eccb	0.10347899
43	0xbdaefce1	-0.085443266
44	0x3d610c5d	0.05494343
45	0x3e211148	0.15729249
46	0x3e37e46d	0.17958231
47	0xbd39fd39	-0.045407508
48	0x3b0dd179	0.0021639748
49	0x3dad8aad	0.08473716
50	0x3e54f19e	0.20795295
51	0xbd91ce55	-0.07119433
52	0xbd864995	-0.065570034
53	0x3dde4ea7	0.108548455
54	0x3d8323d5	0.06403319
55	0xbca1ea01	-0.019764902
56	0x3d107b00	0.035273552
57	0xbba9c6ca	-0.005181168
58	0xbd482181	-0.048860077
59	0xbc2a5a4f	-0.010397508
60	0xbda56b47	-0.08077102
61	0xbd86db3b	-0.06584784
62	0xbdd985b3	-0.10621204
63	0x3d92e91a	0.07173367
64	0xbb84e084	-0.0040550847
65	0x3e070389	0.13184942
66	0x3d50b80b	0.050956767
67	0x3da176ff	0.07884025
68	0xbc2f4595	-0.010697742
69	0xbcbae94e	-0.022816326
70	0x3d96cc4f	0.073631875
71	0x3c8fb1e7	0.017540885
72	0xbc198d7c	-0.009372111
73	0xbcc5554e	-0.024088528
74	0x3e3afea0	0.18261194
75	0x3daafa0c	0.08348474
76	0x3d803ea9	0.062619515
77	0x3d8cf62f	0.06882893
78	0x3c25a53f	0.0101101985
79	0x3d76d9b0	0.060266197
80	0xbd17aebc	-0.037031874
81	0x3e2b2f9b	0.16717379
82	0xbc692344	-0.014229599
83	0x3dce787b	0.100815736
84	0xbcf753fc	-0.030191414
85	0x3d7f6130	0.062348545
86	0xbdbee234	-0.093204886
87	0x3ccc9390	0.024972707
88	0xbbb33c4e	-0.0054698354
89	0x3d29d639	0.041464064
90	0x3bbc289f	0.005742147
91	0x3cf54dac	0.029944263
92	0xbc9f2b05	-0.019429693
93	0x3d54404e	0.05181914
94	0x3db152de	0.08658384
95	0x3d4ae02d	0.049530197
96	0xbd4dd268	-0.050249487
97	0x3d3d1816	0.04616555
98	0x3d73b6ae	0.05950039
99	0x3dd4f10b	0.10397538
100	0xbd8e305d	-0.06942818
101	0xbcd42c76	-0.025900107
102	0x3c939300	0.018014431
103	0x3ce0eec2	0.027457599
104	0x3ddae442	0.10688068
105	0x3c15204d	0.009101939
106	0x3ba2e157	0.0049707103
107	0xbd976e94	-0.07394138
108	0x3c9ed8a6	0.019390415
109	0x3d52fa9f	0.051508542
110	0xbb96941e	-0.0045952937
111	0xbc92442d	-0.017854774
112	0xbd37bb08	-0.0448561
113	0x3d0b3b05	0.033991832
114	0x3d132ca8	0.03593126
115	0xbd175e37	-0.036955085
116	0x3bda990f	0.006671078
117	0x3d83d8cf	0.06437837
118	0x3d27bfee	0.040954523
119	0xbd01fda1	-0.03173602
120	0x3c712941	0.014719308
121	0xbbec02f6	-0.0072025014
122	0x3e0ba88c	0.13638514
123	0x3c8c327d	0.017113918
124	0xbdc115bd	-0.094279744
125	0x3d7f85cd	0.06238346
126	0x3d1d59b4	0.038415626
127	0x3d107ba1	0.03527415
128	0xbc4e03ad	-0.012574119
129	0x3ce6730f	0.028131036
130	0x3e09568f	0.13411926
131	0x3e1b881b	0.15188639
132	0xbd4244a4	-0.047428742
133	0x3d0b4d67	0.034009364
134	0x3dcc6cb2	0.099816695
135	0x3da3caee	0.0799769
136	0x3d991f4e	0.07476674
137	0xbd829fa2	-0.06378104
138	0x3c200698	0.009767197
139	0xbd499699	-0.049215887
140	0x3dad4ef2	0.08462323
141	0xbc6f913b	-0.014622028
142	0xbd685468	-0.05672112
143	0xbd9a7eb3	-0.07543697
144	0x3da99564	0.08280447
145	0xbcf942c2	-0.03042734
146	0x3d7a3c10	0.061092436
147	0xbdc7fb3c	-0.09764716
148	0x3bbd7c2b	0.0057826242
149	0x3d60c87a	0.05487869
150	0x3d9cceac	0.07656607
151	0xbd98a8ed	-0.07454095
152	0xb9be6413	-0.00036314185
153	0xbd9ccebe	-0.076566204
154	0xbd472f72	-0.04862923
155	0x3d0ce22d	0.034395386
156	0xbdbaeae4	-0.09126833
157	0x3d57cf8c	0.052688166
158	0xbc3686c6	-0.011140531
159	0x3d794e9c	0.060865983
160	0xbc8c1319	-0.01709895
161	0x3c1fab1f	0.009745388
162	0x3d5e1c01	0.054225925
163	0x3dc23260	0.094822645
164	0x3e2ef513	0.17085676
165	0xbdb8c41f	-0.09021782
166	0xbdf1e92a	-0.11812051
167	0x3e09bcbd	0.13450904
168	0x3df9a0ab	0.12188848
169	0xbc4b883e	-0.012422619
170	0xbdadbbcb	-0.08483084
171	0xbcb8515a	-0.022499729
172	0x3c9c39cd	0.01907053
173	0xbd0f3396	-0.034961306
174	0xbca04476	-0.019563895
175	0xbe22f228	-0.15912688
176	0xbd3fc003	-0.046813976
177	0xbd7510ac	-0.059830353
178	0x3c152976	0.009104123
179	0xbdf80f3e	-0.12112282
180	0xbd894a63	-0.06703641
181	0xbe097849	-0.13424791
182	0xbe4186b0	-0.18899035
183	0x3c7f4ff0	0.015583023
184	0x3c94cf12	0.018165145
185	0x3c296c0e	0.010340704
186	0xbe35438c	-0.17701548
187	0xbd78af94	-0.06071432
188	0xbcb2f16a	-0.02184363
189	0x3dc08fbb	0.094024144
190	0xbc0dda76	-0.008658042
191	0x3b1e512f	0.0024157276
192	0x3daf780a	0.085678175
193	0x3d90634f	0.070501916
194	0xbe1fd4d5	-0.15608533
195	0xbe0770be	-0.13226601
196	0x3da09187	0.07840257
197	0xbe01f817	-0.12692295
198	0xbda8280f	-0.082107656
199	0x3d4f9626	0.050680302
200	0x3d5e22dd	0.054232467
201	0x3d695929	0.056969795
202	0xbe3a5964	-0.18198162
203	0x3c9301fa	0.017945278
204	0x3cb7b984	0.022427328
205	0x3c4e32fb	0.012585397
206	0xbdc04e43	-0.09389927
207	0xbdf2a505	-0.11847881
208	0x3d822b4e	0.06355916
209	0xbd80f99b	-0.062976085
210	0xbd1b03ac	-0.0378453
211	0xbd4ff026	-0.050766133
212	0xbdaa577a	-0.08317466
213	0xbd0ea02a	-0.034820713
214	0x3d0bbe1f	0.03411686
215	0x3deac94b	0.11464175
216	0xbd49c831	-0.049263183
217	0x3d1c184f	0.03810912
218	0x3ddad0c5	0.10684351
219	0x3cee1993	0.02906493
220	0x3a4941c5	0.0007677342
221	0x3cfbc3b4	0.030732967
222	0x3c95401b	0.018219044
223	0xbdfb8f34	-0.12283173
224	0xbbdc8085	-0.006729188
225	0xbd2f6383	-0.04281951
226	0xbd81b39a	-0.063330844
227	0x3d8648ed	0.06556878
228	0xbd10f3a1	-0.035388593
229	0x3c104a65	0.0088068
230	0xbcbd2894	-0.023090638
231	0x3ce97079	0.028496014
232	0x3da1f627	0.07908278
233	0x3d991acb	0.074758135
234	0xbd25d70f	-0.0404883
235	0xbd1ef186	-0.038804553
236	0x3de4a470	0.111641765
237	0x3d01eb06	0.031718276
238	0xbcff4fa9	-0.031165915
239	0xbe080f36	-0.13287053
240	0x3d253e68	0.04034272
241	0x3d6b0284	0.057375446
242	0x3daab0cc	0.083345026
243	0xbc5771c3	-0.0131496815
244	0x3cd83483	0.026392227
245	0x3d92441a	0.071418956
246	0x3d793bf5	0.060848195
247	0xbcd52585	-0.026018867
248	0xbd35f538	-0.044423312
249	0xbc6a0369	-0.01428304
250	0x3c86fefc	0.016479008
251	0x3c7ef210	0.015560642
252	0xbc243944	-0.010023419
253	0x3d4b08a2	0.04956878
254	0x3da574db	0.08078929
255	0x3d8e78d7	0.06956642

fc1.bias f4 [64]
0	0x3d28bcda	0.041195728
1	0x3dcc3849	0.09971673
2	0xbb63a8d8	-0.003473809
3	0xbcdeb203	-0.027184492
4	0x3d82b797	0.06382673
5	0xbd8714db	-0.06595775
6	0x3d009dfa	0.03140066
7	0xbd491b60	-0.049098372
8	0x3d334e1e	0.04377567
9	0xbd10ee08	-0.035383254
10	0xbcc702e2	-0.024293367
11	0x3c9261a4	0.017868824
12	0x3d03a291	0.032137457
13	0xbbefeb80	-0.007321775
14	0x3d1f1fb1	0.038848583
15	0xbd279db7	-0.040921893
16	0xbcfb85da	-0.030703474
17	0x3ca1e4d1	0.019762428
18	0x3b86b6f9	0.0041111675
19	0x3bca3032	0.006170296
20	0xbd784d9c	-0.06062089
21	0x3cd271dd	0.02568906
22	0x3cb32461	0.021867933
23	0x3b3d5e8b	0.0028895463
24	0xbc93c16f	-0.018036572
25	0x3d92e128	0.071718514
26	0x3d16a38d	0.036777068
27	0xbd2dbc5e	-0.04241597
28	0xbd554c56	-0.052074753
29	0xbd2c927d	-0.04213189
30	0xbd182b46	-0.037150644
31	0xbca99fc8	-0.020706072
32	0xbd323df2	-0.043516107
33	0x3c52dcfe	0.012870071
34	0x3d177ae5	0.036982436
35	0x3d0825c2	0.033239134
36	0xbca3c9d6	-0.019993704
37	0x3c641a39	0.013922268
38	0xbc5929d6	-0.013254603
39	0xbca2e7d3	-0.019885933
40	0x3c5d7573	0.013516772
41	0x3d2595b4	0.04042597
42	0xbbca984a	-0.006182705
43	0xbc66c9f4	-0.014086235
44	0xbd3be8aa	-0.045876183
45	0x3ce7d00f	0.028297452
46	0xbc8c87a1	-0.017154517
47	0xbd5cf9e9	-0.05394927
48	0x3d3f80e3	0.046753775
49	0xbdad0808	-0.084487975
50	0x3ca7a695	0.020465175
51	0x3dae5caa	0.08513768
52	0xbbfed25a	-0.0077765407
53	0x3beb562d	0.007181904
54	0x3b7b1967	0.0038314702
55	0x3d0f24c9	0.03494719
56	0xbd636d59	-0.055524204
57	0xbd533a94	-0.051569536
58	0x3cec56dd	0.028850013
59	0xbd4e008a	-0.050293483
60	0x3d2188f5	0.039437253
61	0x3baf7042	0.0053539583
62	0xbd257bdb	-0.04040132
63	0xbb6701e5	-0.0035248932

fc2.weight f4 [36, 64]
0	0x3e135452	0.14387634
1	0x3d83d749	0.06437547
2	0x3cf274c7	0.0295967
3	0x3d0dd6b8	0.0346286
4	0x3d84fa80	0.064930916
5	0xbdb11f4c	-0.086485475
6	0x3c405c5b	0.011740769
7	0xbb06bab2	-0.0020558056
8	0xbd69be02	-0.05706597
9	0xbdc8e68b	-0.098095976
10	0x3c4a7b08	0.0123584345
11	0xbdfc49b2	-0.12318744
12	0xbda7c3c4	-0.08191636
13	0xbdb84f51	-0.089995034
14	0x3d634960	0.055489898
15	0xbc5ba56e	-0.013406141
16	0xbdb46164	-0.08807638
17	0x3b9558ab	0.004557689
18	0xbdd797aa	-0.105269745
19	0xbd965540	-0.07340479
20	0xbe37ccd8	-0.17949235
21	0x3df894d7	0.12137764
22	0x3d48c856	0.04901918
23	0xbd972fa3	-0.07382133
24	0xbd9709c2	-0.07374908
25	0xbda019e3	-0.078174375
26	0x3dbd7c84	0.09252265
27	0x3d94632e	0.072454795
28	0xbd0b6cbe	-0.03403925
29	0x3da78e7f	0.08181476
30	0x3d4b3661	0.049612407
31	0xbe888f92	-0.26672035
32	0x3dc006c6	0.09376292
33	0xbd0acec1	-0.033888582
34	0xbdb537a5	-0.08848504
35	0x3d21e79f	0.03952753
36	0x3df64ad6	0.120259926
37	0x3b1e802b	0.002418528
38	0x3dea8699	0.11451454
39	0xbdd5c8c2	-0.10438682
40	0x3d9ae1b2	0.07562579
41	0xbdd8ffc7	-0.10595661
42	0xbd4b1ea2	-0.04958976
43	0xbddbd645	-0.10734228
44	0xbd974412	-0.0738603
45	0x3e171749	0.14754976
46	0x3dbd3e10	0.09240353
47	0x3bf8881e	0.007584586
48	0x3dab084c	0.08351192
49	0xbe18dd9a	-0.14928284
50	0xbd057826	-0.032585286
51	0xbda4306d	-0.08017049
52	0x3bc8ad86	0.006124201
53	0xbd1ea3f8	-0.03873059
54	0xbd76c270	-0.060244024
55	0x3dc068d2	0.09394993
56	0x3ce9a69b	0.028521826
57	0xbdf0467f	-0.11732196
58	0xbe03ccf3	-0.1287115
59	0x3d5da76d	0.054114748
60	0x3db465e2	0.08808495
61	0xbd660b9f	-0.056163426
62	0xbdd4bf1f	-0.10388016
63	0x3dc63155	0.09677378
64	0x3da64127	0.081178956
65	0xbdddb9e8	-0.108264744
66	0xbc94a931	-0.018147083
67	0x3db15779	0.08659262
68	0xbe95e41f	-0.29275605
69	0x3d5052c8	0.050860196
70	0x3d8bc21e	0.06824134
71	0xbca2a567	-0.01985426
72	0xbe6abeb7	-0.22924314
73	0xbdb7785d	-0.08958504
74	0xbd885f27	-0.06658774
75	0x3e0402a5	0.12891634
76	0xbd69d580	-0.057088375
77	0x3c16ceb5	0.009204556
78	0x3d7a724f	0.06114417
79	0xbb68cf87	-0.0035524087
80	0x3b9f181b	0.0048551685
81	0x3da41975	0.08012668
82	0xbd7621eb	-0.06009094
83	0x3dff6b2e	0.12471615
84	0xbd91a7fd	-0.07112119
85	0xbcaf656e	-0.02141067
86	0x3e4abb62	0.19798043
87	0x3d90ba3a	0.0706677
88	0x3e14df32	0.14538267
89	0x3dae5661	0.08512569
90	0xbde28f7e	-0.11062525
91	0xbd11ab84	-0.03556396
92	0xbdba4dc3	-0.09096863
93	0xbe039903	-0.12851338
94	0xbdf4863a	-0.11939664
95	0xba4c064e	-0.0007782922
96	0xbe334dfe	-0.1751022
97	0xbd62ce42	-0.055372484
98	0xbd88aed7	-0.06673973
99	0xbdcc34ae	-0.09970985
100	0xbd3f6933	-0.046731185
101	0xbd61c352	-0.055117913
102	0xbccbe19f	-0.024887858
103	0xbbf5b463	-0.0074983104
104	0x3d5eecd5	0.05442508
105	0x3dca0244	0.098637134
106	0xbde4b239	-0.11166806
107	0x3b8364d0	0.0040098205
108	0xbdf56ed6	-0.11984031
109	0xbcba02da	-0.022706438
110	0x3c8594a7	0.016306235
111	0xbd6c4be5	-0.057689566
112	0x3e232d6d	0.15935297
113	0xbc0241e6	-0.007950282
114	0x3dc83e0b	0.09777459
115	0x3e09cc93	0.13456945
116	0x3d91bcc1	0.0711608
117	0x3ddfb30c	0.10922822
118	0x3df2d882	0.11857702
119	0x3db345e3	0.08753564
120	0xbc5b0016	-0.01336672
121	0xbd0122eb	-0.03152744
122	0x3ddc35ee	0.10752474
123	0xbc3488d3	-0.01101895
124	0xbd438870	-0.04773754
125	0xbd3e7983	-0.0465026
126	0x3ca34105	0.019928465
127	0x3d5905bb	0.05298398
128	0x3d1a3a92	0.037653513
129	0x3d292ebe	0.041304342
130	0x3c38a314	0.01126935
131	0xbd9d68ee	-0.076860294
132	0xbd9a4755	-0.07533137
133	0xbd94ad12	-0.07259573
134	0xbe379d25	-0.1793104
135	0xbdd71954	-0.10502878
136	0xbe6250bd	-0.22101112
137	0xbb58f83e	-0.0033106948
138	0xbddabadb	-0.10680171
139	0x3da94716	0.08265512
140	0xbdcb0708	-0.099134505
141	0x3df0d00a	0.1175843
142	0x3d9da48e	0.07697402
143	0x3d08382d	0.0332567
144	0x3ca64aae	0.020299282
145	0xbe22f4e1	-0.15913726
146	0xbd39abb6	-0.045329772
147	0x3c0f8c4e	0.008761479
148	0x3e1219ee	0.14267704
149	0x3d8680d2	0.06567539
150	0x3d412c18	0.04716119
151	0x3e00d807	0.12582408
152	0xbc56aac7	-0.01310224
153	0xbb866f6c	-0.004102638
154	0xbd75f115	-0.060044367
155	0x3e5ea6f4	0.21743375
156	0x3c679c06	0.01413632
157	0x3d6806e1	0.056647185
158	0x3d39d075	0.045364816
159	0xbe6fb116	-0.23407397
160	0xbbc5ebd1	-0.0060400744
161	0xbe665dbb	-0.22496693
162	0xbd4fd9b1	-0.050744716
163	0x3c588838	0.013216071
164	0xbd24eb83	-0.040263664
165	0xbdbbf0b2	-0.09176768
166	0x3d90841a	0.070564464
167	0x3dd3f383	0.103491805
168	0xbd4e2539	-0.050328467
169	0x3dee4758	0.116347015
170	0xbd5d2656	-0.053991638
171	0xbded5614	-0.11588684
172	0x3ce28dab	0.027655443
173	0xbdec2504	-0.11530498
174	0xbd98c57a	-0.07459541
175	0x3d57e3c8	0.052707464
176	0xbea71fa5	-0.3264133
177	0xbd67ad11	-0.056561533
178	0xbba3e788	-0.005001966
179	0xbe4abdfb	-0.19799034
180	0xbea48414	-0.32132018
181	0x3a68abb6	0.00088756846
182	0x3c913619	0.017725991
183	0x3e69e3b3	0.22840767
184	0x3d7be9e5	0.061502356
185	0x3e2d9923	0.16952948
186	0x3db9de88	0.090756476
187	0x3ca1155b	0.019663503
188	0xbe092650	-0.13393521
189	0xbcb7cecc	-0.022437476
190	0x3d82a3f2	0.06378926
191	0xbdc49935	-0.095995344
192	0x3d75b368	0.05998555
193	0xbc914e6c	-0.01773759
194	0xbdfeedbd	-0.12447689
195	0xbe3c1050	-0.18365598
196	0x3d215df6	0.03939625
197	0x3cfd28d0	0.03090325
198	0xbd6e3d85	-0.05816414
199	0x3d142e0d	0.03617673
200	0xbe2c1abf	-0.16807078
201	0xbdc6b4ed	-0.097024776
202	0x3d60f7cc	0.054923818
203	0x3dc72f99	0.097258754
204	0x3dc4fa17	0.09618013
205	0xbd399431	-0.045307342
206	0xbcf2701e	-0.029594477
207	0xbd2b1747	-0.041770246
208	0xbdfb8379	-0.12280936
209	0xbcfba51c	-0.030718379
210	0xbd443bdb	-0.047908645
211	0xbdd59498	-0.10428733
212	0x3bd23758	0.006415289
213	0xbc9dc742	-0.019260053
214	0xbdeb4210	-0.1148721
215	0xbd87d4f7	-0.06632417
216	0x3d75ae47	0.059980657
217	0xbe524c8b	-0.20537011
218	0xbdea81ff	-0.11450576
219	0x3d9cf5d7	0.07664078
220	0x3e23f2cf	0.16010593
221	0xbce102f6	-0.027467232
222	0x3c9bbcc3	0.019010907
223	0xbc36bc78	-0.011153333
224	0xbd1caca8	-0.038250595
225	0xbd3f5518	-0.04671201
226	0x3d5c7062	0.053818114
227	0x3de3d4dd	0.11124585
228	0x3e311f37	0.17297064
229	0x3dce2491	0.10065568
230	0x3d3d30ed	0.046189237
231	0x3df19207	0.11795431
232	0xbdcfffc5	-0.10156206
233	0x3e249384	0.16071898
234	0x3cd32cf6	0.025778275
235	0xbd913b06	-0.07091336
236	0xbd04a4a7	-0.032383587
237	0xbe271af8	-0.16318882
238	0xbe2eb169	-0.17059864
239	0xbe2bf542	-0.16792777
240	0x3e736c6a	0.23771825
241	0x3db66550	0.089060426
242	0xbd9203c1	-0.07129622
243	0x3c43b0ea	0.011944035
244	0xbc6ad03e	-0.014331875
245	0x3da6b3d7	0.081397705
246	0xbd57562b	-0.05257241
247	0x3b212192	0.002458666
248	0x3d2df5e7	0.04247084
249	0x3e1248cd	0.14285584
250	0xbd60540c	-0.054767653
251	0x3dad4fcf	0.08462488
252	0xbdc31da6	-0.09527139
253	0xbd1d42f7	-0.03839394
254	0x3d8db4dd	0.069192626
255	0xbda847d5	-0.08216826

fc2.bias f4 [36]
0	0x3e1981e8	0.14990962
1	0xbde49bab	-0.11162504
2	0xbc94bd93	-0.018156802
3	0xbe1171c8	-0.1420356
4	0x3b1ecf19	0.0024232327
5	0x3d5ed801	0.054405216
6	0xbdacbee9	-0.08434851
7	0x3d573fc6	0.052551053
8	0xbc1a9694	-0.009435315
9	0x3d9bcf14	0.076078564
10	0xbd86b66f	-0.06577765
11	0x3d75398f	0.059869345
12	0xbda8f517	-0.08249872
13	0xbcd231f1	-0.02565858
14	0x3ddc4339	0.10755009
15	0x3d8559a3	0.065112375
16	0xbc33756c	-0.0109532885
17	0xbd3a0b53	-0.045420956
18	0xbc180f37	-0.009280971
19	0x3a72d335	0.00092630397
20	0x3d80097b	0.06251808
21	0x3cf0b1f1	0.029381724
22	0x3d0bc75a	0.034125663
23	0x3dbff5dd	0.093730666
24	0x3c94b16c	0.018151008
25	0x3d98818c	0.07446584
26	0xbde67c28	-0.1125415
27	0x3dc73199	0.09726257
28	0x3d173753	0.036917996
29	0x3d41df6c	0.047332212
30	0x3de5affa	0.112152055
31	0xbd9ceb01	-0.07662011
32	0x3d00fb32	0.03148956
33	0x3d331bd4	0.04372771
34	0xbd8e2f31	-0.06942595
35	0xbcbdabaf	-0.023153154
