best_model_baseline_soft.pth (torch, 149708 bytes, 8 tensors)

conv1.weight f4 [8, 3, 3, 3]
000000 7f f2 db 3e dd fc 08 3e b6 3e ce be f9 8e c0 3e
       0.42958447 0.1337771 -0.4028222 0.3760908
000010 01 cd 27 be bb fd 72 bd d0 06 99 3e 85 9e 76 bd
       -0.16386797 -0.059324007 0.2988801 -0.06020977
000020 de 03 b9 be f6 90 b2 3e a1 c8 05 bd 6c 47 99 be
       -0.36135763 0.3487622 -0.032662038 -0.29937303
000030 65 ec 82 3e a9 e0 72 3d c5 45 5c be 5f 1e ab 3e
       0.2557098 0.059296284 -0.2151099 0.3342161
000040 20 a0 1c be 91 7b 83 be 6d 9a aa 3e 5f 54 82 3d
       -0.15295458 -0.2568021 0.33320943 0.06363749
000050 b1 18 9c be e0 f8 e3 3e 99 ce a8 bd 4e 08 1f be
       -0.30487588 0.44525814 -0.082425304 -0.15530512
000060 78 25 ab 3e b9 ec 53 be 78 02 8c be b5 41 ae bd
       0.33427024 -0.20695771 -0.27345634 -0.08508626
000070 e6 35 87 3e b9 3d 0f 3e 82 13 21 3e 0e 3e 25 3f
       0.2640831 0.13988389 0.15730098 0.6454781
000080 f4 45 16 3f 45 53 7b 3e 44 3f db 3e 81 06 5d 3e
       0.5870049 0.24543484 0.42821705 0.21584512
000090 d0 b1 25 3d 3b 1d a4 3e 48 18 da 3e c2 ac ea 3e
       0.04045278 0.3205355 0.4259665 0.4583493
0000a0 eb e2 24 3f d4 a2 39 3f 4a 70 c3 3e ec 49 36 3f
       0.6440875 0.7251408 0.38171607 0.71206546
0000b0 f4 b9 e5 3e f6 9b 4f be 98 3b 96 3e 11 6b 0d 3e
       0.44868433 -0.20274338 0.2934234 0.13810374
0000c0 ce 5e e4 3d 3b 72 31 3f 60 8e 4b 3e 12 96 20 bd
       0.11150895 0.69314927 0.1987853 -0.03920562
0000d0 6d 6a 7e 3e 9a fb 1c 3e 8f 68 c4 bd 8b c0 e3 bc
       0.24845286 0.15330353 -0.095902555 -0.027801773
0000e0 65 2b 58 3e c8 17 70 bd 38 4b 80 3e c4 32 b4 3e
       0.21110304 -0.05861643 0.25057387 0.3519498
0000f0 fb c3 92 bc 3d 76 f6 3e 51 8d c2 3e f2 50 4c bc
       -0.017915716 0.48137084 0.3799844 -0.012470471
000100 e1 3b 9b bd f5 d1 8d bd 53 ae b8 3e e1 21 8f 3e
       -0.0757978 -0.06924812 0.360705 0.27955535
000110 a9 a0 15 3f ce e2 86 3e e9 e1 c7 3e 79 36 cb 3e
       0.5844827 0.26344913 0.39039543 0.39689997
000120 13 5a de bd 6e 3e 01 3e 27 5d e7 3d c4 28 8f 3e
       -0.10857024 0.12621471 0.11297064 0.2796079
000130 a8 98 2b 3e 42 87 00 3f ec ba 81 bc 05 7a 3e 3d
       0.16757452 0.5020639 -0.015836202 0.046503086
000140 78 2c 18 3e 37 fc d2 3e 4d 1a d6 3e b8 5e c8 3e
       0.14860713 0.4120805 0.4181694 0.39134765
000150 92 36 b8 3e 2a 54 e0 3e 63 d6 91 3e ae a2 0c 3e
       0.35979134 0.43814212 0.28483877 0.13733932
000160 53 13 23 be f4 e5 cd be 18 8a f6 3e 09 8e 43 3f
       -0.1592534 -0.40214503 0.48152232 0.76388603
000170 47 5f dd 3e 12 6e 29 3f 53 3c 0e 3f 6f 0e 9f 3d
       0.43236753 0.6618358 0.555608 0.07766425
000180 ed 32 91 3e 41 8c db 3d 31 cc a3 bd 1a 73 bd 3e
       0.28359166 0.10720111 -0.07997931 0.37001878
000190 f1 8c 20 3f c4 5b 6a 3e 76 56 7a 3e 59 b5 c2 3e
       0.6271506 0.22886568 0.24447045 0.38028982
0001a0 1f 86 89 bd 3b 87 28 be a1 2b 07 bd 68 a3 a5 be
       -0.06715035 -0.16457836 -0.033000592 -0.32351232
0001b0 28 21 89 be 8f 60 02 3e 8c d4 ae bd 21 0b ae bd
       -0.2678311 0.12732147 -0.08536634 -0.084982164
0001c0 17 fe 7d 3e ae a2 f4 3e a5 3b 60 3e 32 4c 2a 3f
       0.24803959 0.47780365 0.21897753 0.66522515
0001d0 d2 68 1c 3f 7d f1 36 be d5 55 07 be 0a 5b 79 3e
       0.61097443 -0.17865558 -0.13216336 0.24351135
0001e0 a8 df 93 3e fa bf c9 3e 9e 83 ec 3e 39 54 a7 3e
       0.28881574 0.3940428 0.46194166 0.32681444
0001f0 09 4f 48 3f f2 00 e7 3e 6f 32 a1 be 2f 90 f8 3c
       0.782456 0.4511791 -0.3148379 0.03034219
000200 e6 63 78 be fc e2 a7 bd 24 cc 85 3e fb b0 3d 3e
       -0.24256858 -0.08197591 0.2613231 0.18524544
000210 8d 3d 9b 3d 9f 54 f4 3e f7 4c e3 3e da 00 c9 3e
       0.07580099 0.4772081 0.44394657 0.39258462
000220 3c 6a bb bd 75 ff 9d be ed 7a b5 3e eb ce c2 bb
       -0.09151122 -0.3085896 0.35445347 -0.0059450767
000230 38 fa 84 bd 1f 3c 1d bc 3b 05 60 bd 6f 25 15 bd
       -0.06493038 -0.0095968535 -0.05469249 -0.036412653
000240 6e 26 5a 3d 62 03 36 3e f5 3a c1 be 0e ed 44 3e
       0.053259306 0.17774728 -0.37740293 0.19231054
000250 12 62 c2 3c de d8 c7 be 93 1d 59 3e 23 c1 3a be
       0.023728404 -0.39032644 0.21202688 -0.18237738
000260 b9 1a c5 be 0e 34 98 3d 37 06 3f 3e 90 99 fd 3d
       -0.3849695 0.07431804 0.18654715 0.12382805
000270 3b 0b a7 3e 00 e9 27 bd 96 f8 2e be b6 d9 5e 3e
       0.32625756 -0.04099369 -0.17087016 0.21762738
000280 a6 ea 4d 3e 6e a5 66 be 6c 73 29 3f 80 73 09 3f
       0.20109043 -0.22524044 0.66191745 0.53691864
000290 9c f5 a1 bd e1 7e b2 3e 26 c1 7c 3e 3b 7c 3c be
       -0.079081744 0.34862426 0.24683055 -0.18406765
0002a0 41 33 68 bd d2 00 82 be bd cf f7 be 83 93 0e 3f
       -0.056689505 -0.2539125 -0.4840068 0.55693835
0002b0 10 c3 ec 3e 5f 35 33 bc 07 83 18 3f 7d ec 28 3e
       0.4624257 -0.010938018 0.5957493 0.16496463
0002c0 38 48 87 be 2e 35 36 3e b5 4f 3e be 8e 64 ae be
       -0.26422286 0.17793724 -0.18585093 -0.34061092
0002d0 4e 1f 11 3f 65 d6 eb 3e 7d 9a 1a be d7 8c 17 3e
       0.5668839 0.46062008 -0.15097995 0.1479982
0002e0 5b 6f 2b 3d cc 70 9e bb 21 6a 86 ba 5f dd af be
       0.041854244 -0.004835224 -0.0010255018 -0.3434858
0002f0 d7 59 d5 be 57 41 44 be 8f 34 9a bd 0e 79 d6 be
       -0.41670105 -0.1916555 -0.07529556 -0.41889232
000300 86 a4 04 bc 06 c4 bc bd 48 a0 0c bd 5c dd b7 3e
       -0.008095866 -0.09217076 -0.034332544 0.3591107
000310 1f 09 ba 3e be 01 9f 3d 61 b9 4a be a6 07 03 bc
       0.36335084 0.07764004 -0.19797279 -0.007997429
000320 c3 2f 68 be d4 12 15 3b e8 39 b0 3c fc 4c 44 be
       -0.2267447 0.0022746818 0.021511987 -0.19169992
000330 da 14 99 3e 64 97 b4 3e 11 16 2c 3d 87 93 f7 3d
       0.2989872 0.35271752 0.04201323 0.120886855
000340 43 48 99 be a5 19 b1 bd 3e 04 bf 3d d0 4e 9c bd
       -0.29937944 -0.086474694 0.09326981 -0.0763222
000350 50 d3 92 be bd 48 c4 3e 3f 1b 6e 3e 81 8a f6 3c
       -0.28676844 0.38336745 0.23252581 0.03009534

conv1.bias f4 [8]
000000 52 6c a3 3d f6 bb 9f be e7 64 97 3d bf e4 f8 be
       0.07979645 -0.3119809 0.073922925 -0.4861202
000010 11 78 bf be f7 27 99 3d 55 15 31 be 27 fa b1 3e
       -0.3739629 0.07478326 -0.17293294 0.34761164

conv2.weight f4 [16, 8, 3, 3]
000000 63 49 5e bd ad 88 cc be c0 4d 9d bc c7 d2 91 be
       -0.054269206 -0.39948025 -0.019202113 -0.28481123
000010 2e 26 57 be 6d 50 37 3d d7 de 51 be 95 c5 e4 bd
       -0.21010658 0.044754434 -0.20495163 -0.11170498
000020 1d 9e 10 3d 7e 31 ef 3c 2c d7 2c 3d f2 70 ac 3b
       0.03530704 0.029198404 0.04219739 0.0052624876
000030 51 8a 1a 3d ba b1 ed 3c 33 a0 d1 3c 20 b6 a3 bd
       0.037729565 0.02901541 0.025589084 -0.07993722
000040 5e de 0d be b8 bb c9 bd 67 33 24 bd 86 26 78 3a
       -0.13854358 -0.09850258 -0.040088084 0.00094661897
000050 47 28 10 be 84 9c eb 3d fd 7f 89 bc 19 ae 82 bd
       -0.14077865 0.11504462 -0.016784662 -0.06380863
000060 0e d5 21 3d 6a 11 32 bd d3 07 ce bd 95 e0 a4 3a
       0.039509825 -0.04347364 -0.10060086 0.0012579138
000070 a6 0e 38 3c dd 5c 16 3e 2e b0 00 3e 55 d0 e0 3d
       0.011233961 0.14683862 0.12567207 0.10977236
000080 94 00 c9 3d d0 73 48 3e dd 64 e8 3d 30 85 97 3c
       0.098145634 0.19575429 0.11347363 0.018496126
000090 ec e2 21 3d 4e 79 49 3c aa 7d 50 3d b3 73 ea 3d
       0.03952305 0.012296988 0.050901093 0.11447849
0000a0 37 25 8c bc cd 76 d7 bd 4f 50 1e 3e af b8 26 bd
       -0.01710759 -0.10520706 0.15460323 -0.04070347
0000b0 60 8a b1 bd 2e 1e 53 be b7 05 f8 be 6f 9e 5d be
       -0.08668971 -0.20616981 -0.4844186 -0.21642469
0000c0 dc 2f d9 be d9 29 88 be 31 19 a0 bd 68 3a 3c be
       -0.42419326 -0.26594427 -0.07817305 -0.18381655
0000d0 17 93 9d 3d 52 1f b2 bd 1e 26 fb bc ac de 6b be
       0.07694071 -0.0869738 -0.030657824 -0.23034161
0000e0 89 80 df bd cc 07 01 be 4d 3b 14 3e 73 b9 39 3e
       -0.10913188 -0.1260063 0.14475746 0.1813715
0000f0 ee 62 c9 3d 82 0e b1 3e 54 a3 47 3e 1a c3 f0 3d
       0.098333225 0.3458138 0.19495898 0.11755963
000100 ae 2d 95 3d b1 cf 97 bd f2 85 9a be 01 36 da bd
       0.07284103 -0.07412661 -0.30180317 -0.10654832
000110 13 ff 84 be 58 6e c8 be 61 13 bd be f0 aa 98 be
       -0.25975856 -0.39146686 -0.36928847 -0.29817915
000120 e4 75 64 bd 54 88 fd bd 23 63 8d 3e c6 17 6c be
       -0.05577649 -0.12379518 0.27614698 -0.23055944
000130 16 83 09 bf d0 ba 06 3e 6b 56 59 bd 76 8e c9 be
       -0.53715646 0.13157201 -0.05306093 -0.39366502
000140 6c 37 e6 bd 36 82 42 3e 3b 9d 37 3e 8d ca 8e 3b
       -0.1124104 0.18994984 0.17931072 0.004357642
000150 66 15 b6 bd 15 38 3b 3d ff 4a 15 3e 83 ac 61 be
       -0.088908 0.04570778 0.1457939 -0.22038464
000160 44 96 92 be 1a 70 2f bd e2 67 8f 3e 02 a3 b5 3d
       -0.2863027 -0.042831518 0.28008944 0.08868982
000170 b1 a6 cc 3d ab 04 fa bc a2 35 98 bc 4c 4b 84 3c
       0.09992731 -0.030519804 -0.018580262 0.016149186
000180 ef c6 0f be 85 63 2f be a8 c0 d4 bb 4a ca 6a 3e
       -0.14040731 -0.17127807 -0.006492693 0.2292873
000190 c9 a4 99 3e 0c cf ed 3d 91 d0 ac ba 8b af 37 3e
       0.30008534 0.11611757 -0.0013184716 0.17938058
0001a0 f0 81 1e 3e 65 7d 2a be 05 96 1a be 79 91 b0 bd
       0.15479255 -0.16649397 -0.1509629 -0.08621497
0001b0 07 3c cf 3d 94 9c 36 3e 74 fc a8 3d 29 72 2b be
       0.10118871 0.17833167 0.082512766 -0.16742767
0001c0 1a 6e 84 3d 5d b4 2d 3e 84 ea c5 be ea 35 a5 be
       0.06466313 0.16963334 -0.38655484 -0.32267696
0001d0 54 38 46 be 8d 28 57 be a4 c3 e8 bc 79 f6 98 3e
       -0.19357425 -0.21011563 -0.028413601 0.29875544
0001e0 2f ba 83 3c ff a5 df be 21 dc 51 3e ef 91 a4 bd
       0.01607999 -0.43681332 0.20494129 -0.08035647
0001f0 4c 05 3a be 90 08 65 be 71 6c 12 3e 68 30 c5 3d
       -0.18166083 -0.22366548 0.1429918 0.096283734
000200 84 14 b6 3d ae 67 7b bd c0 5e ec 3d c8 b0 5f 3e
       0.08890632 -0.061378174 0.1154151 0.2184478
000210 ab 7b 3f be a3 a7 f3 be cf c5 8b bc d9 92 68 bd
       -0.1869952 -0.47588834 -0.017062096 -0.05678067
000220 0c 45 d2 3d 36 21 70 3e 39 a8 0a be 5c e8 f2 be
       0.10267076 0.23450169 -0.13540734 -0.474429
000230 48 fe e3 bd 06 cc cf 3d 13 32 ac be 19 ff 1f be
       -0.11132485 0.10146336 -0.33631954 -0.15624656
000240 24 07 af bd d1 4e e4 be 7c 7c 15 3e 3b c6 6a 3e
       -0.08546284 -0.44591382 0.14598268 0.22927181
000250 76 99 b8 be 00 e6 2a be 1d 73 b3 3e df c4 8d be
       -0.3605458 -0.166893 0.35048762 -0.27689263
000260 12 4c 06 be 06 d2 ed bc ed 39 79 3d 15 ac a3 3e
       -0.13114956 -0.029030811 0.060846258 0.31967226
000270 ae d8 68 bd c9 a1 16 be 2a 79 ce bc 9d 40 ee bd
       -0.056847267 -0.14710154 -0.02520426 -0.11633418
000280 41 c0 9b be 81 0c 45 3d db ed 4b 3d 90 35 80 3e
       -0.30420116 0.048107628 0.049787384 0.25040865
000290 c1 e5 8e 3e ab 14 b5 3c 06 2d 33 3d 2f 57 0e 3e
       0.27909663 0.022104582 0.04374411 0.13900445
0002a0 83 ae c9 3d 7f 9b 47 be 9f 05 e1 3d 8a 9c 84 3c
       0.098477386 -0.19492911 0.109874 0.016187925
0002b0 00 84 30 3e 74 53 aa 3e b8 e6 7d bd be 18 12 be
       0.17237854 0.33266795 -0.06198761 -0.14267251
0002c0 24 ca a6 3d 56 06 93 3d 8c f0 4e be 2b 92 58 bc
       0.08144024 0.07178943 -0.20208949 -0.013218443
0002d0 66 2b f9 bd 63 4b 09 3d 96 dc 8c 3e 0f 6c ba bd
       -0.12166481 0.03351916 0.27512044 -0.09102642
0002e0 c1 2a a3 bd aa ec de bc d8 4f 0a be 90 07 a2 be
       -0.07967139 -0.02721246 -0.1350702 -0.31646395
0002f0 a2 7c 5c bd 6f 28 53 3e b6 d8 5c be 46 b0 13 3e
       -0.053829797 0.20620893 -0.21567044 0.14422712
000300 74 b3 01 3e 4e 94 9f bd d6 bc b4 bd f3 c0 e6 3e
       0.12666112 -0.07791959 -0.0882508 0.45069084
000310 fa 9f 2b be 76 a9 0d be d4 4b 2a be d6 bc 92 be
       -0.16760245 -0.13834175 -0.16630489 -0.28659695
000320 c6 76 cf 3e 42 5f 36 be 41 66 f5 be 7e de 38 3e
       0.40520304 -0.17809775 -0.47929576 0.18053624
000330 24 95 20 3e ed ad 12 bf 38 53 0a be 0b 78 80 3e
       0.15681893 -0.5729664 -0.13508308 0.25091586
000340 2f 2b 7b be d5 60 25 3d 1a ba ed 3d d7 7e 97 bd
       -0.24528192 0.04037555 0.11607762 -0.0739724
000350 ed a1 50 3d ee 6b 0c 3e 15 57 ce bc 86 42 b2 bd
       0.050935674 0.13713047 -0.025188008 -0.087040946
000360 e4 4a 28 3e 86 31 43 be 2a 1c 6e be 3f 9e 51 be
       0.16434819 -0.1906186 -0.23252931 -0.20470522
000370 cf a0 61 be bd 6e 9b bd ef b9 bb be 96 5a 0b bd
       -0.22034 -0.07589481 -0.36665294 -0.034021936
000380 58 51 46 bc 91 00 8f bd f9 17 1f 3b c3 0f e0 bc
       -0.012104355 -0.0698253 0.0024275763 -0.027351266
000390 78 18 dc bc 7f e5 b5 3d b5 fa f9 3c 99 2f a5 bb
       -0.026867136 0.088816635 0.030515054 -0.0050410745
0003a0 7d ae 8b 3d 92 a3 da 3c fe f0 ac 3b 85 d3 ac bd
       0.068203904 0.026689325 0.005277752 -0.08438782
0003b0 50 36 a0 3d c6 50 0d bd dc 3b d4 3d f3 60 39 3d
       0.07822859 -0.03450086 0.1036298 0.045258474
0003c0 e6 1b 05 3e f4 bd 4c bd 35 ee f1 bd 2d c7 c6 bc
       0.12998924 -0.04998584 -0.118130125 -0.024264896
0003d0 f7 3b 80 3b cb c3 a6 3b 1d ac fa bd 73 aa 92 bd
       0.0039133984 0.0050892583 -0.12239859 -0.07161417
0003e0 7c 8c 9a 3d af 57 f6 bd 90 82 7d 3d 47 da 7c 3b
       0.075463265 -0.12028443 0.061892092 0.0038582252
0003f0 58 38 33 3d 2d 7b 47 3d 57 bc be 3d ae 05 d6 3c
       0.043754905 0.048701454 0.09313267 0.026125755

conv2.bias f4 [16]
000000 81 5f 95 be aa 35 a2 bd 34 e7 4f 3e 4f 86 31 be
       -0.29174426 -0.07920392 0.2030304 -0.17336391
000010 ad 64 b3 3d 61 17 31 3d 4b d7 6c 3d 67 5a e2 3d
       0.08759437 0.043235186 0.057822507 0.11052399
000020 71 91 56 3a 5d df 7e be 80 6f 3b be ee 18 a4 be
       0.00081851246 -0.24889894 -0.18304253 -0.3205027
000030 6a e4 c9 bd 5f 53 2e 3e ed 4c c7 bd 72 93 59 be
       -0.0985802 0.17023991 -0.09731469 -0.21247652

fc1.weight f4 [64, 512]
000000 25 64 01 3a 37 54 fe 3b d2 8c c8 3c 5f 71 36 bc
       0.0004935882 0.007761504 0.02448121 -0.011135428
000010 09 bf e4 3b be 35 23 3c ff 4a e7 3a 16 f4 fe 3b
       0.006980781 0.009961544 0.0017646252 0.007780562
000020 29 d8 31 bd b6 19 42 bd 27 99 00 bd b6 50 a4 3c
       -0.043419037 -0.0473878 -0.031396057 0.020058017
000030 11 c2 4f bc e8 2d f8 3c 51 41 c2 3c 0b 4f c2 bc
       -0.012680546 0.030295327 0.023712786 -0.023719331
000040 3f 45 13 bd f7 20 06 3b 1d a9 a6 bc 4b ff bd bc
       -0.03595471 0.0020466426 -0.020344311 -0.023193022
000050 5a 9b 33 bd b0 45 d8 3c ba 4e d7 bc 6d d8 7d 3c
       -0.043849327 0.026400417 -0.026282657 0.015493494
000060 70 1a 1a bc 4d 77 04 bc 0a 39 4f bc 4c 80 c7 bc
       -0.009405717 -0.008085084 -0.0126478765 -0.024353169
000070 a5 3e 2c bd 25 47 aa 3c 16 24 8e bc 32 56 16 bd
       -0.04205193 0.020785877 -0.017351191 -0.036703296
000080 6b f5 00 3d 19 47 13 bc 1c c2 9e bc b4 d4 17 bd
       0.03148405 -0.008989119 -0.019379668 -0.037068084
000090 5d ac e2 3b 3e 3e 97 3b c0 1c e0 bc 5b dd a2 bc
       0.00691752 0.004615574 -0.027357459 -0.019880941
0000a0 7c 99 ad 3b da c5 0c bc 1a 6d 16 bc 1a 62 ae 3c
       0.005297838 -0.008592093 -0.009181285 0.021287013
0000b0 37 78 29 bd 38 3e 20 3d 8b 8f a8 3a 62 92 9a bb
       -0.04137441 0.039121836 0.0012860162 -0.004717157
0000c0 da 4a 18 bb 1e 9f f7 bc 13 5d 2e 3d 27 1a 99 3c
       -0.0023237974 -0.03022724 0.04256923 0.018689228
0000d0 c5 66 25 bd 45 70 79 3c e5 e4 11 3d 79 3a b3 bc
       -0.04038121 0.015224521 0.03561868 -0.021878468
0000e0 98 45 9d 3c 8a 58 fd 3b 44 48 28 bc 54 4f d9 3c
       0.019198224 0.007731502 -0.010271136 0.026527084
0000f0 5c 87 40 bd 1e 9f 00 3d 92 bd 97 3b 67 47 7a 3c
       -0.04700409 0.031401746 0.004630753 0.015275813
000100 7a e7 eb 3c 71 43 08 3c 9b 9e 17 3d 8c 0e 4b bb
       0.0287969 0.0083168605 0.037016492 -0.0030984012
000110 3d 49 d8 bc fc 18 9b bb ec 07 e7 3c c3 84 82 3c
       -0.02640211 -0.004733203 0.02820202 0.015932446
000120 32 a0 2d bd 28 00 23 3c a2 3f 23 bd 7a 03 2b bd
       -0.042389102 0.009948768 -0.039855607 -0.041751362
000130 1d ff 96 3c 1d d8 cc 3b 61 54 e9 bc 16 05 08 3d
       0.018432194 0.0062513486 -0.028482618 0.033207975
000140 75 0c e7 3c 45 1b 37 bd d4 3f 83 3c 6a 2b 8b 3c
       0.028204182 -0.04470374 0.016021647 0.016988475
000150 e8 03 63 3c 82 b8 7f bc a1 a0 12 bd 10 47 ba bc
       0.013855912 -0.015607955 -0.03579772 -0.022738963
000160 17 9f f3 3b 2b 2b d0 ba 23 9b 40 ba 70 ee ec 3c
       0.0074347365 -0.0015882006 -0.0007347336 0.02892229
000170 d8 c9 b6 bc b6 8a 1d bd db 83 3d bd 7c bb 26 bd
       -0.022313043 -0.038462363 -0.046268325 -0.040706143
000180 d3 7f d0 bc 97 b8 99 3b 9b 94 a0 39 1f f0 fd bc
       -0.025451576 0.0046911943 0.00030628298 -0.030998288
000190 42 a8 77 3c 06 34 45 bc 65 19 bb bc cd 24 f0 ba
       0.015115799 -0.012036329 -0.022839257 -0.0018321514
0001a0 3a b5 86 3c 32 b7 b8 bc 44 f3 39 bd b6 9a 3f bd
       0.016443837 -0.022548292 -0.04539801 -0.046778403
0001b0 9f 66 2b 3c 33 ac 35 bd b1 7e ca 3c 03 19 65 bc
       0.0104614785 -0.044353675 0.024718614 -0.013983014
0001c0 bc 67 1b 3d ee c4 ff bc ba 2d 11 3d ab 5f a2 bc
       0.037940726 -0.031221833 0.035444 -0.019821009
0001d0 31 26 43 bc 31 6f 90 3c 04 2a 3e bd fe 91 25 bc
       -0.011910961 0.017631145 -0.046426788 -0.010105608
0001e0 43 11 ec bc a1 28 1a 3d 7a 22 f5 ba ff f9 82 3c
       -0.028816825 0.037636403 -0.0018702291 0.015988348
0001f0 9f bc 20 3c 5d 2f 94 bc f9 31 08 bd 89 67 fe ba
       0.009810596 -0.01808899 -0.033250783 -0.0019409518
000200 2c 5b ec bb 4d 17 b6 3a d3 a9 a1 3c 5e 81 29 bd
       -0.007213017 0.0013892442 0.019734299 -0.04138314
000210 4a ef 9f 3c f9 c0 de 3b 21 e2 fd 3c 1d 88 50 bd
       0.019523282 0.0067979065 0.030991616 -0.050911058
000220 1d 46 f7 bc c5 bc 11 3c f7 fd 30 3c 9b 2e 92 bc
       -0.0301848 0.008895104 0.010802737 -0.017844489
000230 0a 3e a9 bc 68 f9 4b bc 44 d9 c9 bc ca 8e af 3c
       -0.020659465 -0.0124496 -0.024639733 0.021430392
000240 e7 17 1e 3c 96 4b 71 3b 3a bc e5 bb a7 5c f1 bc
       0.009649253 0.0036818734 -0.0070109637 -0.029463125
000250 fb b4 97 bc 8c f7 ac 3c 68 72 c7 3c 2e 48 10 bd
       -0.018518915 0.021114133 0.024346545 -0.035225086
000260 c8 47 0d 3d 1c 09 3a bd 85 e9 2f bd da a7 2d 3d
       0.034492284 -0.045418844 -0.04294731 0.042396404
000270 76 28 1b 3d d2 87 72 3c 54 42 e7 bc 75 07 9a 3c
       0.037880383 0.01480289 -0.02822987 0.018802384
000280 5f d7 b8 bc c4 55 9e bc 84 a2 1a 3d fd 70 0b bd
       -0.022563634 -0.019328006 0.037752643 -0.0340433
000290 62 22 04 3d 37 47 2d bd c2 35 cf bc ec 18 d1 bc
       0.032259353 -0.042304244 -0.025294188 -0.025524579
0002a0 f1 9b 38 bd 11 e9 cd 3b 93 40 d3 3c 01 6d ee bc
       -0.045070592 0.006283887 0.025787627 -0.029104711
0002b0 5a b0 9f bc f6 fa a1 bc bb 66 07 3c a2 d9 af 3c
       -0.01949327 -0.019772988 0.008264239 0.02146608
0002c0 8a e2 20 3d fa be 37 bc af 2f fe bc c6 fa f8 bb
       0.039278544 -0.011214966 -0.031028597 -0.007598254
0002d0 20 7d b0 bc b5 fd 02 bd 83 a4 e1 bc fb 2f 2d bc
       -0.02154404 -0.031980235 -0.027544266 -0.0105705215
0002e0 da ef 3e bd 75 e2 1a 3d e3 a7 a6 bc a1 32 12 3d
       -0.04661546 0.037813623 -0.020343727 0.035692815
0002f0 b1 19 a0 ba e2 ba 08 3d 89 0b da bc 09 6e 01 3d
       -0.0012214688 0.03338135 -0.026616829 0.03159908
000300 a1 48 22 bd c6 b2 47 3c 00 e2 dd 3c 18 ec e8 bc
       -0.039620046 0.012188619 0.027085304 -0.02843289
000310 e3 45 67 bc c8 09 e3 3c 16 5e c0 ba c3 dd 37 bc
       -0.014115783 0.027714625 -0.0014676477 -0.011222306
000320 4d af 0b bc c2 96 a3 bc 56 7c a1 bb 2b ab ce 3c
       -0.008525682 -0.019969348 -0.004928152 0.025228104
000330 5d cc 3a bd df 8a cc bb d8 5b 17 3d db a7 27 bd
       -0.045605052 -0.0062421407 0.036952823 -0.040931564
000340 e0 b4 b5 bb a3 67 01 bd 4a 8e 40 bd 50 24 c7 3c
       -0.0055452436 -0.031592976 -0.047010697 0.024309307
000350 c2 f4 d4 bc e3 dc ae bc ed 08 f1 3c 21 27 5b bb
       -0.025995616 -0.021345561 0.029423201 -0.003344007
000360 a8 e0 8e bc ca c6 ab 3c 3f 30 b7 bb 7f 4c 29 bd
       -0.017441109 0.020968813 -0.005590468 -0.041332718
000370 57 e9 39 3c 98 99 18 bd 77 77 e6 3c 95 5e f2 bc
       0.011347136 -0.037255853 0.028133137 -0.029586116
000380 ac 74 b8 3c b9 1b 03 3d d3 da 26 bd 95 f5 3a bb
       0.022516571 0.03200886 -0.04073603 -0.0028527726
000390 fb f2 3d 3c 60 41 f9 3c 99 4d b4 3b 22 ea 2e bd
       0.011593576 0.030426681 0.0055024144 -0.042703755
0003a0 2c 69 29 bc 75 f2 b2 bc 9b 13 df bc 66 d1 50 3b
       -0.010340016 -0.021844128 -0.027231028 0.0031863092
0003b0 32 ce 09 3d fe 44 07 3d 83 dd 59 bc 8b 1f 1e 3d
       0.03364391 0.03302478 -0.013297441 0.0386043
0003c0 a6 d7 46 3c ee cf 64 bb bc b4 05 bd 3c 58 fa bc
       0.0121363755 -0.0034913975 -0.032643065 -0.030559652
0003d0 9f f9 b1 b9 c0 d4 08 3d 93 36 f0 bc 37 7d 06 3c
       -0.00033946053 0.03340602 -0.029322898 0.0082085645
0003e0 88 0d 3c bd f1 35 0e bd b7 98 8b ba 0e fd 5f bc
       -0.045911342 -0.03471941 -0.0010650371 -0.013671173
0003f0 21 c6 97 3c 3d 35 38 bd 77 1d 56 bb 03 2d 40 3b
       0.018527092 -0.044972647 -0.003267137 0.0029323704

fc1.bias f4 [64]
000000 d9 35 1f 3d 63 69 9b 3c fe 3b 27 bd 7b 84 03 3d
       0.038869713 0.01897115 -0.040828697 0.032108765
000010 10 94 75 3c 01 b7 ef ba 1a cb ac bd f3 1b 47 3c
       0.014988914 -0.0018288792 -0.08437176 0.01215266
000020 1c aa 10 bd 30 c2 85 3c 67 73 42 bd 3e 19 00 bd
       -0.03531848 0.016327947 -0.047473338 -0.031274073
000030 d4 e3 8d bc 59 27 70 bb b1 f2 53 3c f9 b9 bb 3c
       -0.017320551 -0.0036644547 0.01293628 0.022915827
000040 49 c2 0a bc 57 ea 9d 3c b8 5f 00 3c 7f 07 9d bd
       -0.008469173 0.019276781 0.007835321 -0.076674454
000050 19 31 e1 3b 4d 5a 07 3d b3 d9 93 3c cc 05 f6 3d
       0.006872308 0.033045102 0.018048143 0.120128244
000060 e3 d6 b3 3b 1c 37 a8 bc 6e 75 80 3b b9 e5 44 3d
       0.005488263 -0.02053409 0.0039202487 0.048070643
000070 1f 74 15 3c 8d 67 70 3d 08 ac 10 3b 5b 14 6d bd
       0.009121924 0.058692504 0.0022075195 -0.05788074
000080 c2 95 86 3c 8b 7f cf 3b 10 35 b4 bc 0d 9b 83 3c
       0.016428832 0.006332343 -0.021997958 0.016065145
000090 bc 66 ff 3c 79 fc f0 3c fa f4 1d bd 8e e4 3a bd
       0.031176917 0.029417263 -0.038563706 -0.045628123
0000a0 21 a9 10 3d 08 e8 02 3c 9f 5d 32 bd db c6 91 bb
       0.035317544 0.007989891 -0.043546315 -0.0044487542
0000b0 68 f4 de 3c c7 70 06 3c 97 14 c7 bb 0a 64 14 3d
       0.027216151 0.008205599 -0.0060754525 0.036228217
0000c0 e8 35 45 bb 9c e2 c1 3d d6 9b 20 bd aa 10 ed 3d
       -0.0030091945 0.094670504 -0.039211117 0.11575444
0000d0 33 49 62 3b b6 f4 46 3c 23 10 b3 bc d2 6a 71 bc
       0.0034528493 0.012143305 -0.02185828 -0.014734941
0000e0 3f 8f b3 bc a8 50 64 3d c9 87 6f 3c dc c3 06 bd
       -0.021918891 0.055740982 0.014619776 -0.03290163
0000f0 5b db b0 bb 08 6c 42 bc fb 70 c2 3d ae e8 dc 3c
       -0.005397243 -0.011866577 0.094942056 0.02696642

fc2.weight f4 [36, 64]
000000 00 f6 c3 bd 8b 05 fa bc 17 08 e5 bd 31 c4 19 be
       -0.09568405 -0.030520221 -0.11183184 -0.15016247
000010 44 c2 d9 bc c4 6b 5d 3c 3d 06 04 3e 0d bf 2c be
       -0.02658189 0.013514463 0.12893005 -0.16869755
000020 64 7e a4 3d 3b 68 17 bd e0 9d 1d be 43 fd ee bd
       0.080319196 -0.036964636 -0.15392256 -0.116693996
000030 76 7f 9b 3d 17 41 fe bd 9e b6 fd 3c d7 71 15 bd
       0.075926706 -0.12414759 0.030970868 -0.03648552
000040 2d 76 ef 3c d4 f1 03 bd a4 0f ca bd 9a 19 24 3c
       0.029231155 -0.032213047 -0.098662645 0.0100158695
000050 6b 37 f3 bd 5a e6 90 3c 9a b3 f8 3d 45 79 5d bc
       -0.118758045 0.017687965 0.12143631 -0.013517682
000060 70 7e f2 bc c5 62 21 be 04 02 98 bd 82 b9 97 3d
       -0.029601306 -0.15760334 -0.074222594 0.0740843
000070 e1 4c bd bd bf 50 59 3d 24 9b 69 bd f7 8b e6 3b
       -0.09243179 0.05305552 -0.05703272 0.007035728
000080 e0 5e 47 bd 19 a1 8b bd 6d 3b 5f bd 64 de 0a 3c
       -0.048674464 -0.06817836 -0.054500032 0.008475874
000090 a2 df d9 3c 76 3f 73 bd 2a 25 59 bb f5 01 da 3c
       0.026595894 -0.059386693 -0.0033133724 0.026612261
0000a0 bc 02 b4 bd 06 76 06 3e 65 2c 83 3d d8 0d 12 3e
       -0.08789584 0.1313096 0.06404952 0.14263093
0000b0 7e c7 e6 bd 83 a3 2b 3b 82 ef e7 bd 35 ad 84 bd
       -0.11268519 0.002618999 -0.11324979 -0.06478349
0000c0 7e 2b 0f 3d 8f f6 05 bd 17 35 63 3d f9 48 97 bd
       0.034953587 -0.03270584 0.055470552 -0.07386965
0000d0 c4 2c 9d 3d 9d 00 d4 bc 2e 8f 84 3c 5f cb 26 bd
       0.07674554 -0.025879199 0.016181555 -0.040721294
0000e0 08 88 a4 bd ed ed e1 3c fb c3 be 3d 90 f2 b7 3d
       -0.080337584 0.027579272 0.09314724 0.08981812
0000f0 27 2c 24 3b 58 03 81 bd 42 3d c8 bd 60 1c 01 bc
       0.002505073 -0.06299466 -0.09777309 -0.0078803
000100 45 39 4d bd 9b 58 c0 bd 54 bf b3 bc 20 50 42 be
       -0.050103445 -0.093919 -0.021941818 -0.18975878
000110 ab 25 22 bd bb eb e4 bd cc e1 9e bd e4 1b 77 bd
       -0.039586704 -0.111777745 -0.07757911 -0.060329333
000120 e5 9e c2 bd 8b 48 b7 bd a7 49 4d bc fe 50 b6 bb
       -0.09502963 -0.08949383 -0.012529767 -0.0055638542
000130 08 0f f9 bd 9f 0f 1e 3e fa 60 2b 3b 67 d1 bd 3d
       -0.1216107 0.15435646 0.0026150332 0.09268456
000140 8d 12 ac bd 41 1f 5d be 13 5f b6 3d 12 a6 4e 3d
       -0.08401976 -0.21593954 0.08904853 0.050451346
000150 82 82 b7 3d 4c 03 99 bd 12 85 7d be e3 51 34 3d
       0.08960439 -0.07471332 -0.24757794 0.044023406
000160 26 20 04 bd ca 36 e1 bb bc 79 23 3e cf 79 8a 3c
       -0.03225722 -0.0068729864 0.15964407 0.016903786
000170 85 ff cf 3d 4a 65 53 bd dd 7e a4 be ed 73 19 bd
       0.10156158 -0.05161027 -0.3212804 -0.03746407
000180 61 39 67 3d 11 3e 1a 3c dc da f6 bd 61 67 02 bc
       0.056451205 0.009414212 -0.12053463 -0.007959218
000190 ef 98 02 3e 8d 91 9f 3c 17 07 be bd 43 a0 dc bd
       0.12753652 0.019478584 -0.09278696 -0.10772755
0001a0 c4 11 d3 bd 70 ba 2e 3d 6e 06 b9 bd a2 be 0e 3c
       -0.10306123 0.04265827 -0.090344295 0.008712443
0001b0 6e c3 9a 3d e5 54 fe 3d 8b 23 b2 bd a8 46 30 bd
       0.075568065 0.12418536 -0.086981855 -0.043036133
0001c0 c1 4f 94 bd 87 ba bb 3d cc 5e c1 bd ec df b6 bd
       -0.07241774 0.09166437 -0.09441909 -0.089294285
0001d0 f7 7f 91 bd f9 bc e0 3d 63 f0 86 3d 9a 7d d5 bc
       -0.071044855 0.10973544 0.06588819 -0.026060868
0001e0 14 90 a5 3c 09 84 2e be 8e 05 e4 bd ee cf b0 3b
       0.020210303 -0.17042555 -0.11133872 0.005395881
0001f0 f6 f9 c3 3d 04 9a bb 3d 8f b9 1d 3d 21 fd 60 3d
       0.09569161 0.091602355 0.03850704 0.054928903
000200 eb 0a 90 bc 6e 84 2a 3d 7a b8 83 bd fa 07 62 bd
       -0.017583331 0.0416302 -0.064316705 -0.05518339
000210 8c 11 ae bd ae 0b 81 3d e5 21 06 3d 70 d8 d8 3d
       -0.084994406 0.06301056 0.032747168 0.10588157
000220 f3 09 2f be df 42 9f bd 63 11 eb bd 42 c5 b0 3d
       -0.17093639 -0.077764265 -0.11477926 0.08631374
000230 f1 30 b1 bd 2e 5c f3 3b 66 02 26 3d e5 1a ea 3d
       -0.08651913 0.00742676 0.04052963 0.11430911
000240 3a ac 86 be 4e 18 88 be 06 1e 4b be cc cf 2b 3e
       -0.26303273 -0.26581043 -0.19835672 0.16778487
000250 6f 99 a2 bd 14 23 6d bc 11 ca 2b be 85 57 ee bd
       -0.079394214 -0.014473695 -0.16776301 -0.11637787
000260 3d 79 c5 3d df 73 88 bd a3 3f ce bb 57 1a 76 bd
       0.09642265 -0.06662726 -0.006294207 -0.060083713
000270 52 f9 93 be 4c bb a3 3d 38 4c 89 3d 6b 32 f1 3d
       -0.28901154 0.079947084 0.06703991 0.117771946
000280 9f 24 45 3e 69 d7 86 3c 2a 12 aa 3c 93 02 2a 3e
       0.19252251 0.016460137 0.020760614 0.16602544
000290 6e 9a c7 3c ec a5 70 bd f0 63 d1 3d 43 e9 41 3d
       0.02436563 -0.058751985 0.1022414 0.047341596
0002a0 9d 11 eb 3d 35 96 fa 3d 99 86 d8 3c 48 5a 3f be
       0.11477969 0.12235681 0.026431369 -0.18686783
0002b0 cd a1 8e 3d ae 5a 65 be 4e 4d d7 bd 12 7a a3 3d
       0.06964455 -0.22397873 -0.105127916 0.079822674
0002c0 58 3c 7d 3d f0 6f 2e 3d 1a a6 33 3d 96 42 0b be
       0.061825126 0.04258722 0.04385958 -0.1359962
0002d0 40 4c 60 3d a5 4f a3 bd 70 4b a9 3d 03 99 a7 bc
       0.054760218 -0.07974175 0.08266342 -0.020458704
0002e0 d5 0d bc bd 25 fe 53 be c3 61 aa bd cc 86 d8 bd
       -0.09182326 -0.20702417 -0.08319428 -0.105725855
0002f0 07 7e 68 be ab c4 8d 3d 06 d2 12 3e c7 30 82 3d
       -0.22704326 0.06922277 0.1433793 0.0635696
000300 5b 1d 64 ba 5f a4 8c 3b 5c fa 94 bd a5 eb 56 be
       -0.0008701884 0.0042920555 -0.07274315 -0.20988329
000310 55 0c 19 3c bc 58 4c 3c fd 2c b8 3d f4 71 7d 3e
       0.009341319 0.012472328 0.08992956 0.24750501
000320 d6 ea 18 be 61 ca ec bd eb ba 7e 3c d5 3a 65 be
       -0.14933333 -0.11562038 0.015547494 -0.22385724
000330 e1 af 6a bb 5f 08 3b 3d 9c fa a8 3c c4 eb b8 bd
       -0.0035810398 0.04566228 0.020627312 -0.09029344
000340 b4 f3 ab 3b dd 15 16 be 5e 5d f3 bd ab 1d 97 3d
       0.0052475575 -0.14656778 -0.11883043 0.073787056
000350 f6 9b 19 bd 61 6b ad bd 4e d7 95 3d c4 58 03 be
       -0.03750225 -0.084677465 0.07316457 -0.1282683
000360 3f 5f b6 3d 6c 94 77 bd 8c b1 2e 3e 3e 7a cc bd
       0.089048855 -0.06044428 0.17059916 -0.09984253
000370 1b d2 25 bd c5 cf 20 be d3 ac c9 bb 6e 62 e4 3d
       -0.040483575 -0.15704258 -0.0061546355 0.111515865
000380 19 37 54 3d 15 3a f5 3d 64 c4 8c bc f1 43 fd bd
       0.051810358 0.11973969 -0.01718349 -0.123664744
000390 c7 26 20 bc 9c c0 2f 3e 4e f8 12 3e 10 e6 cb 3d
       -0.00977487 0.17163318 0.14352533 0.0995599
0003a0 7e ec cc bc 02 d5 08 be 2c de 68 bd d8 11 1f be
       -0.025015112 -0.13362506 -0.056852505 -0.1553415
0003b0 7d 8e fc bc 1d 5f f5 bd 68 f5 c2 bd 28 26 86 3d
       -0.030829662 -0.11981032 -0.09519464 0.065502465
0003c0 2b b5 19 3a 06 a0 67 3d a2 23 1c 3d 97 aa 90 be
       0.0005863483 0.056549095 0.03811992 -0.2825515
0003d0 8d 67 9c 3d 8f 80 31 bd 1a 2b f9 bd af 39 bb bd
       0.07636938 -0.043335494 -0.12166424 -0.09141862
0003e0 a6 ae e2 bc 34 24 3f bd c1 cc 04 3c ee e4 06 3d
       -0.02767117 -0.046665385 0.008105458 0.032933168
0003f0 14 e4 a7 3c 08 f1 06 3d c2 50 70 bd 11 b9 d9 3d
       0.020494498 0.03294471 -0.058670767 0.10631002

fc2.bias f4 [36]
000000 a7 c7 97 3d c6 51 8b bc f0 2b 78 bc 4c 1f a6 bd
       0.074111275 -0.017006766 -0.015147194 -0.08111438
000010 08 18 12 3d b2 78 bb bd 01 64 ca bd 87 2d d0 3a
       0.03566745 -0.0915388 -0.098823555 0.0015882709
000020 0f 4e 8e bd 7e ca 0a 3b fa 1a 86 3d 89 fc 7e bd
       -0.06948482 0.0021177824 0.06548114 -0.062252555
000030 9d 26 ef bd 98 22 da 3d b1 4c e1 3c e8 36 86 3d
       -0.11677287 0.106511295 0.02750239 0.06553441
000040 ff c9 28 3d 47 da e9 3d 48 51 d4 3d 93 6c 98 bd
       0.041208263 0.11418586 0.10367066 -0.07442584
000050 a6 a2 ae 3d 30 b6 91 3c 86 85 e0 3d 7e c9 9f bd
       0.085271165 0.01778707 0.109629676 -0.078021035
000060 b6 cc 39 3a c4 6f 8a 3d ea d8 f0 bb 89 0e bc 3d
       0.0007087694 0.06759599 -0.007350077 0.0918246
000070 8b 5b 55 bd 76 4b dd bd f3 62 16 bd 73 35 bc 3d
       -0.052089255 -0.10805409 -0.03671546 0.09189882
000080 d9 63 57 3d fa 17 17 bc 5d 44 bd bc d3 2f 1f be
       0.052585457 -0.009222025 -0.023103887 -0.15545587
