best_model_baseline_hard.pth (torch, 149644 bytes, 8 tensors)

conv1.weight f4 [8, 3, 3, 3]
0.44997683 0.40706414 -0.07230996 0.07728822 0.03506566 -0.34917897 0.03404722 -0.23005877
-0.17157945 0.597953 0.26489854 -0.26319143 0.2979937 -0.039673075 -0.28576702 0.07238376
-0.32409465 -0.30201995 0.4669576 0.21605358 -0.123354666 0.09136804 -0.07896632 0.0057537216
0.2534358 -0.25984278 -0.31428748 -0.3743928 0.072739154 0.4398228 -0.32306728 0.1445952
0.25915465 -0.27730376 -0.01486053 0.35962293 -0.09466792 -0.03356806 0.18332668 -0.12627083
0.15368874 0.21338736 -0.2649058 -0.10368372 0.2574697 -0.24285571 0.16181916 0.3650121
-0.38890278 0.17975368 0.15291168 -0.25600982 -0.028372698 0.22085534 -0.31309387 -0.039052773
-0.024646644 -0.15140952 -0.13722543 0.055202447 -0.11043592 0.19901153 0.49878424 -0.33876306
-0.023102878 0.24483348 -0.05907473 0.20690635 0.10663255 0.025525987 0.19503723 0.5941503
-0.33358106 -0.26107484 -0.021028612 -0.2449776 -0.18689094 0.35641265 -0.008857563 0.112156466
0.61379576 0.2493298 -0.039182104 0.07698332 0.4523834 0.29585096 0.14376022 0.38877124
0.13754262 0.22928284 0.3537374 0.07750299 0.12228337 0.6063564 0.38371408 0.28238884
0.40915465 0.399664 0.28595474 0.05036106 0.0347704 -0.054214552 0.39478993 0.20917016
0.22940327 0.3065921 0.43538976 0.08002055 0.24843346 0.59117097 0.16370249 0.23430741
0.59422666 0.5213783 -0.017012538 0.32055977 0.29378578 0.40270916 0.7174052 0.47529593
0.5105852 0.93595374 0.8567797 0.09793623 0.27421272 0.24714294 -0.012835616 0.6048414
0.444384 0.017859107 0.63279855 0.5898582 -0.24159452 0.17780931 0.01725475 0.78037953
0.91508985 0.5232168 0.10525681 0.21585964 0.06308959 -0.24144883 -0.265514 -0.1495717
0.6201557 0.9440762 0.771695 0.30666402 0.4399968 0.101153426 0.09377319 -0.094755605
-0.076425 0.6633617 0.88305205 0.41199592 0.20878495 0.36938825 0.1584973 -0.38370216
-0.11668625 -0.40052307 0.16082785 0.26669744 0.11166559 0.3159672 0.7565309 0.35223097
0.10948572 0.3038461 -0.027936356 0.05240773 0.5465578 0.38812885 0.33143136 0.9038892
0.35401514 0.18557855 0.367404 0.04324989 0.1431239 0.4406834 0.173594 0.43110347
0.7746917 0.46843138 0.11961467 0.29764035 0.0042135096 -0.03850055 -0.15084244 0.23880385
-0.2251281 0.100560844 0.17964996 0.04192264 -0.027952945 0.10772452 -0.35885748 -0.2608179
-0.08405405 -0.3185677 -0.31158483 0.09505832 -0.3487318 -0.15329385 0.1835183 0.14153007
-0.029589755 0.40003645 0.1132343 0.21240805 0.06304495 0.15332228 -0.10520412 0.24423566
00000000: 5d63 e63e b66a d03e 3f17 94bd 4949 9e3d
00000010: 02a1 0f3d 96c7 b2be 1975 0b3d 8794 6bbe
00000020: 86b2 2fbe 7313 193f c8a0 873e 07c1 86be
00000030: a192 983e 3c80 22bd 0e50 92be f03d 943d
00000040: bcef a5be 5ca2 9abe 1115 ef3e 263d 5d3e
00000050: 5fa1 fcbd 2b1f bb3d 18b9 a1bd b789 bc3b
00000060: 56c2 813e 1d0a 85be 4aea a0be 6ab0 bfbe
00000070: 44f8 943d 7430 e13e 1369 a5be c410 143e
00000080: ebaf 843e c2fa 8dbe 9579 73bc 7f20 b83e
00000090: 41e1 c1bd a97e 09bd fdb9 3b3e 244d 01be
000000a0: 9560 1d3e 3782 5a3e bca1 87be 2158 d4bd
000000b0: 12d3 833e 2baf 78be ecb3 253e dee2 ba3e
000000c0: 441e c7be 5911 383e e194 1c3e b813 83be
000000d0: dc6d e8bc e727 623e d74d a0be cdf5 1fbd
000000e0: c2e7 c9bc 190b 1bbe d384 0cbe f61b 623d
000000f0: 3a2c e2bd aec9 4b3e a660 ff3e 5a72 adbe
00000100: 3f42 bdbc a1b5 7a3e 58f8 71bd 42df 533e
00000110: 2b62 da3d e01b d13c d7b7 473e 3c1a 183f
00000120: 23cb aabe 9aab 85be 3244 acbc 68db 7abe
00000130: 5760 3fbe b87b b63e 501f 11bc 4ab2 e53d
00000140: b821 1d3f 5050 7f3e 6a7d 20bd 6ea9 9d3d
00000150: cc9e e73e c779 973e e135 133e 060d c73e
00000160: f9d7 0c3e 1fc9 6a3e 121d b53e e3b9 9e3d
00000170: b46f fa3d 2c3a 1b3f 2c76 c43e 4595 903e
00000180: b87c d13e c3a0 cc3e a968 923e 6647 4e3d
00000190: 686b 0e3d 1410 5ebd e821 ca3e b430 563e
000001a0: b1e8 6a3e a4f9 9c3e 68eb de3e d0e1 a33d
000001b0: 5765 7e3e fb56 173f a0a1 273e 48ee 6f3e
000001c0: 3d1f 183f 0c79 053f e15d 8bbc 6920 a43e
000001d0: 176b 963e e52f ce3e dea7 373f fd59 f33e
000001e0: b6b5 023f aa9a 6f3f ea55 5b3f ca92 c83d
000001f0: 9c65 8c3e 0a13 7d3e 7a4c 52bc e3d6 1a3f
00000200: 4d86 e33e 434d 923c 16ff 213f f200 173f
00000210: 8e64 77be a513 363e d559 8d3c f4c6 473f
00000220: 5443 6a3f 89f1 053f e290 d73d 4f0a 5d3e
00000230: 1d35 813d 5d3e 77be 73f1 87be 5329 19be
00000240: 86c2 1e3f faae 713f ce8d 453f 1103 9d3e
00000250: 4347 e13e 8729 cf3d 290c c03d 3a0f c2bd
00000260: b684 9cbd 13d2 293f b30f 623f 21f1 d23e
00000270: b9cb 553e 7520 bd3e 1e4d 223e 9c74 c4be
00000280: 33f9 eebd 5c11 cdbe 0eb0 243e 918c 883e
00000290: eeb0 e43d 74c6 a13e 02ac 413f 9e57 b43e
000002a0: 0d3a e03d b791 9b3e c9da e4bc 7da9 563d
000002b0: 36eb 0b3f d3b8 c63e 5fb1 a93e 4865 673f
000002c0: 7941 b53e 4e08 3e3e 611c bc3e cc26 313d
000002d0: 128f 123e 41a1 e13e a0c2 313e 98b9 dc3e
000002e0: 3252 463f 3dd6 ef3e 89f8 f43d 5164 983e
000002f0: 7b11 8a3b c1b2 1dbd 7176 1abe ff88 743e
00000300: fb87 66be d8f2 cd3d 29f6 373e 13b7 2b3d
00000310: 93fd e4bc ac9e dc3d 2bbc b7be ec89 85be
00000320: 8824 acbd 4e1b a3be 0c88 9fbe f0ad c23d
00000330: f98c b2be 10f9 1cbe 39ec 3b3e 42ed 103e
00000340: 3766 f2bc 94d1 cc3e 62e7 e73d 7f81 593e
00000350: b61d 813d 8400 1d3e 4275 d7bd ea18 7a3e

conv1.bias f4 [8]
0.28601018 0.2756147 0.13797599 -0.44520813 -0.28425074 -0.049005974 -0.19079332 0.25812387
00000000: ed6f 923e 5f1d 8d3e 9449 0d3e 52f2 e3be
00000010: 5089 91be 7dba 48bd 535f 43be d028 843e

conv2.weight f4 [16, 8, 3, 3]
-0.23912 -0.008267386 -0.09575458 0.108946934 0.054437686 -0.040185787 0.4507989 0.25522676
0.097765274 0.13806061 -0.37546197 -0.22551757 0.17558044 -0.3131687 -0.22631557 0.012997127
-0.14809503 -0.021038162 0.23812945 0.018523997 0.16059181 0.006614329 -0.17690161 0.069995366
-0.18834567 -0.12495679 0.2356301 0.18006247 -0.04511597 0.06564563 0.18114083 -0.12174451
0.124096595 -0.107685916 -0.07275598 0.11445225 -0.036823634 -0.0022953022 0.108299136 0.15015751
-0.1318274 -0.009902586 0.061421007 -0.2089359 0.030844035 -0.12195499 -0.0075309817 0.020584287
0.14369893 0.092244014 -0.097988546 0.12410557 -0.09358269 0.14425674 -0.07525566 0.061986238
-0.031640023 0.14605013 -0.068006955 -0.034028303 0.007801359 -0.15273184 0.16141342 -0.012333207
-0.035771064 -0.041971207 -0.30262053 -0.32738194 -0.08803459 -0.30304348 -0.18478909 0.21534497
-0.12407614 -0.34297872 0.27914932 -0.46718505 0.2262701 0.47380885 0.011548892 0.41171992
0.13917097 0.13339834 -0.11538376 -0.27985907 0.1457051 -0.14705439 -0.4010324 0.12599048
-0.42553246 0.050268985 0.10707447 0.24413884 0.018147275 0.09277535 -0.22727731 -0.12092287
-0.16118184 -0.22828525 0.1585949 0.08512439 0.033508655 0.22646885 -0.045627657 0.105587244
-0.018407997 0.0474775 -0.078520924 -0.029921316 -0.06931043 0.055852845 0.08812253 -0.08474294
0.02994063 0.1073108 0.17003226 0.038817856 -0.16643186 -0.22335972 -0.06458921 0.02322053
-0.14003 -0.023448108 0.111549735 0.18736729 0.025175316 -0.030010976 -0.06318684 0.09545776
-0.0021488776 0.025914244 0.08046648 0.015298294 -0.05260285 -0.08341537 -0.15940204 0.06775366
0.008484047 -0.08520789 -0.10403404 -0.3612236 -0.24004915 -0.1877051 -0.309255 0.15728687
0.15683691 0.29155734 0.22789526 0.11230706 0.32285595 -0.04469794 0.48104957 0.39536405
-0.028579947 0.23620144 -0.51859736 0.0020513355 0.17117225 -0.514419 -0.04279295 0.18715386
-0.19016786 0.17112516 0.24517074 -0.20165294 -0.09436586 0.14157017 -0.2505526 0.049401216
0.019890053 -0.12824903 0.105758645 0.10293312 -0.020259898 -0.18744932 0.20559719 0.071779974
-0.2031553 0.24894786 0.046871487 -0.14010285 0.2551037 -0.05160189 -0.34140873 0.15701632
-0.11707596 -0.30649215 0.10739724 -0.17590682 -0.03771915 0.15672554 -0.03231062 -0.17347045
0.21626014 0.07282396 -0.19811963 0.12173075 -0.04462939 -0.18634008 0.22805008 -0.013107838
-0.27376685 0.104252234 0.08108019 -0.22539948 0.050371237 -0.16538662 -0.038118117 -0.17484717
-0.055093877 0.24374309 -0.09950733 0.026250655 0.22045703 -0.1555783 0.12507635 0.30412975
0.17997849 0.62354606 0.5883898 0.088205405 0.2807617 0.048243552 0.16381991 -0.041220766
0.06710765 0.34809035 -0.13995712 -0.236458 -0.035352074 -0.2701273 -0.010914497 -0.09552127
-0.021654928 0.15686893 0.21452442 -0.23378803 -0.029606838 -0.2528711 -0.22369884 0.14687929
-0.13539208 -0.048958093 0.13622351 0.036643825 0.1855352 0.0689697 -0.18347098 -0.22796164
-0.040274344 -0.1633844 -0.2824617 -0.16401447 0.3420285 0.37999254 0.11464194 -0.054587256
00000000: e0db 74be ee73 07bc fa1a c4bd 921f df3d
00000010: 0dfa 5e3d da99 24bd 1dcf e63e 15ad 823e
00000020: 2939 c83d c35f 0d3e 8d3c c0be 14ee 66be
00000030: 5ccb 333e a657 a0be 45bf 67be e7f1 543c
00000040: 39a6 17be 3958 acbc 35d8 733e a3bf 973c
00000050: 2e72 243e 03bd d83b b225 35be bb59 8f3d
00000060: b0dd 40be 58e9 ffbd 0449 713e 4c62 383e
00000070: 86cb 38bd 3771 863d fb7c 393e 3055 f9bd
00000080: 5b26 fe3d 6f8a dcbd 1601 95bd f165 ea3d
00000090: 61d4 16bd c86c 16bb f0cb dd3d e4c2 193e
000000a0: c3fd 06be 753e 22bc 9894 7b3d 4bf3 55be
000000b0: a1ac fc3c 8ac3 f9bd 74c6 f6bb 61a0 a83c
000000c0: d025 133e 6eea bc3d 38ae c8bd 102b fe3d
000000d0: 48a8 bfbd 0ab8 133e a41f 9abd 48e5 7d3d
000000e0: f898 01bd 2a8e 153e 3b47 8bbd 4361 0bbd
000000f0: 8ba2 ff3b bc65 1cbe 8f49 253e 3811 4abc
00000100: ae84 12bd 00ea 2bbd 14f1 9abe 9b9e a7be
00000110: 7b4b b4bd 8428 9bbe 5a39 3dbe 6483 5c3e
00000120: a21b febd e89a afbe a9ec 8e3e e132 efbe
00000130: 59b3 673e 1397 f23e 9037 3d3c f4cc d23e
00000140: d682 0e3e 9399 083e 524e ecbd b049 8fbe
00000150: b833 153e 6d95 16be 1e54 cdbe a603 013e
00000160: 64df d9be dae6 4d3d dc49 db3d 88ff 793e
00000170: 98a9 943c 0101 be3d 62bb 68be 69a6 f7bd
00000180: da0c 25be 9cc3 69be b466 223e b255 ae3d
00000190: 5f40 093d 73e7 673e 11e4 3abd 203e d83d
000001a0: 5ecc 96bc c477 423d 94cf a0bd 8c1d f5bc
000001b0: a0f2 8dbd f4c5 643d 9679 b43d b58d adbd
000001c0: 0d46 f53c c4c5 db3d f01c 2e3e 79ff 1e3d
000001d0: 1d6d 2abe 69b8 64be 5947 84bd fb38 be3c
000001e0: 0664 0fbe 3f16 c0bc 3074 e43d 36dd 3f3e
000001f0: 773c ce3c 94d9 f5bc 1a68 81bd 5c7f c33d
00000200: 2fd4 0cbb 1c4a d43c 9ccb a43d b2a5 7a3c
00000210: 1676 57bd add5 aabd 4a3a 23be 6ec2 8a3d
00000220: ac00 0b3c 7981 aebd cc0f d5bd 4df2 b8be
00000230: 72cf 75be c435 40be ac56 9ebe cf0f 213e
00000240: db99 203e 0147 953e 605d 693e 3e01 e63d
00000250: 604d a53e 3015 37bd 214c f63e 286d ca3e
00000260: 7e20 eabc cade 713e ccc2 04bf b36f 063b
00000270: c747 2f3e f7b0 03bf a947 2fbd 43a5 3f3e
00000280: 5dbb 42be 6f3b 2f3e 0a0e 7b3e 1c7e 4ebe
00000290: e342 c1bd c5f7 103e 6e48 80be ee58 4a3d
000002a0: 77f0 a23c b753 03be fd97 d83d 9ace d23d
000002b0: 16f8 a5bc b7f2 3fbe 1288 523e 6101 933d
000002c0: f107 50be 30ec 7e3e 51fc 3f3d 1f77 0fbe
000002d0: f49c 823e 815c 53bd 20cd aebe e3c8 203e
000002e0: 85c5 efbd 8aec 9cbe 16f3 db3d eb20 34be
000002f0: 657f 1abd a97c 203e 2458 04bd 3da2 31be
00000300: 4c73 5d3e ba24 953d dfdf 4abe f94d f93d
00000310: 4fcd 36bd efcf 3ebe f685 693e 42c2 56bc
00000320: 2b2b 8cbe 3282 d53d 5f0d a63d 1fcf 66be
00000330: 1252 4e3d 1c5b 29be be21 1cbd 230b 33be
00000340: 1eaa 61bd ca97 793e 80ca cbbd 9d0b d73c
00000350: 7dbf 613e eb4f 1fbe 0414 003e e5b6 9b3e
00000360: 484c 383e b7a0 1f3f b7a0 163f 09a5 b43d
00000370: ffbf 8f3e 089b 453d 68c0 273e 1bd7 28bd
00000380: bc6f 893d e638 b23e eb50 0fbe 0c22 72be
00000390: 56cd 10bd 204e 8abe b8d2 32bc a8a0 c3bd
000003a0: ad65 b1bc 40a2 203e 4aac 5b3e 2166 6fbe
000003b0: 0a8a f2bc 5278 81be 4f11 65be 8667 163e
000003c0: 39a4 0abe 4888 48bd 2d7e 0b3e d617 163d
000003d0: f1fc 3d3e fc3f 8d3d d1df 3bbe c76e 69be
000003e0: b6f6 24bd 3d4e 27be d29e 90be 69f3 27be
000003f0: 5c1e af3e 628e c23e 65c9 ea3d e396 5fbd

conv2.bias f4 [16]
-0.28558883 -0.21405856 0.071586855 -0.045102507 0.0124340765 -0.19453126 -0.086210415 -0.06465698
0.011070351 -0.096289836 0.06848395 0.042825855 0.03605474 -0.15039688 -0.16996168 -0.054493748
00000000: b338 92be 2b32 5bbe 219c 923d 68bd 38bd
00000010: 4cb8 4b3c 3433 47be 168f b0bd e16a 84bd
00000020: 6b60 353c 9b33 c5bd 5041 8c3d 2a6a 2f3d
00000030: 23ae 133d a401 1abe 6f0a 2ebe d634 5fbd

fc1.weight f4 [64, 512]
0.056016967 0.025748799 0.0050144284 -0.061898742 0.02036608 0.0076804454 -0.042258628 0.042897563
-0.18334894 -0.07397172 -0.033306736 -0.032030296 -0.043864623 -0.074199006 -0.11370307 -0.016444642
-0.042671494 -0.102705784 -0.06186872 0.01291269 0.06618977 -0.0038942574 -0.0652684 0.012985761
0.037770897 -0.07721173 -0.0048632747 0.165891 0.034017924 0.051747553 0.021475827 0.040595792
0.09687426 0.10614839 -0.07600434 -0.051557112 0.08318258 0.082956135 0.034295257 -0.035078526
-0.080852136 -0.07401277 0.006066071 -0.045328904 -0.062760055 -0.13684225 -0.025947642 0.101330474
-0.06951818 -0.104209825 -0.02411281 0.07197632 -0.012022933 -0.025396299 0.07647547 0.051835753
-0.03386054 -0.059678532 0.08793548 0.10935353 -0.0060068164 -0.07786936 -0.03131044 0.036365397
0.04874295 0.15573622 -0.006196785 -0.0067499797 0.16831939 0.048252217 -0.067284904 0.022281362
0.0050594276 -0.045560617 -0.12445243 0.038774718 -0.014155326 -0.03267469 -0.25267783 0.043913003
0.079069294 0.0310183 -0.18586856 0.04401057 0.088629045 -0.002801778 -0.0446848 0.06087536
0.12265256 0.022495424 -0.057833344 0.09729009 -0.011445971 0.06065502 -0.18904287 0.062490813
0.0014481929 0.073589474 0.016688418 -0.015934808 0.02457026 0.10046377 -0.016106158 0.041888278
0.056031246 0.0119203 0.06752095 -0.022129187 -0.08670374 0.031188734 0.1476879 -0.06401497
-0.09344735 -0.10717996 -0.083435625 0.02105481 -0.22206223 -0.052274697 -0.065809265 -0.030335885
-0.13517396 -0.01087515 0.0068904385 0.01913423 -0.023347922 0.17488198 0.0023458058 -0.05574172
0.04223436 -0.17955099 -0.11107318 0.032252986 0.02707942 0.0023086185 0.22667669 0.09225248
-0.052697603 0.11589101 0.22014388 0.086753376 -0.067100726 0.0326692 0.064531356 0.10917594
-0.08203016 -0.025784342 -0.0040557436 0.030834712 -0.0050877286 0.03830871 -0.0009927587 -0.046500158
0.069067396 0.018801583 0.02213161 -0.062761575 0.032653395 -0.07399272 0.030913252 0.055906866
0.10138801 0.12052679 -0.02019046 -0.084255464 -0.019936142 0.029798387 0.0015616661 -0.00038529394
-0.12127695 -0.05151708 -0.025742052 -0.013115222 -0.07272612 -0.03349223 0.011057546 0.06159951
-0.14072852 -0.01874536 -0.01924436 -0.0014208064 0.050716724 0.0030061852 0.044318683 0.073977165
0.088979095 0.012057756 0.07673491 0.04203592 0.112895295 0.05659529 0.064963534 0.054097693
0.08784912 0.109620064 -0.119789 -0.12364753 0.11625045 0.052578606 0.03392731 -0.021396581
-0.04522914 -0.06853467 0.07604883 -0.026779087 -0.08179629 -0.054848514 0.097301856 0.04301798
-0.07914636 -0.08945541 -0.057930935 0.03178733 0.029549388 0.018146731 0.10436849 0.022604512
-0.051190574 -0.043763034 0.023821466 0.09153747 0.026270071 -0.007569685 0.0040332214 0.04623719
0.087555066 -0.3416718 -0.019724203 0.10447893 0.03217556 -0.18344328 0.1501502 0.16513467
-0.049594283 0.1257713 0.3383421 0.007138875 -0.12909046 -0.0059971497 0.12807839 0.023361783
-0.16996172 -0.25873604 -0.111218214 0.028970275 -0.13325544 -0.06862548 -0.17367856 -0.1076649
0.02564627 0.0018259855 -0.089417584 -0.20200089 0.016070126 -0.10810084 0.0060113547 0.068220265
00000000: 0c72 653d 25ef d23c 1350 a43b 8989 7dbd
00000010: c4d6 a63c 3fac fb3b 6217 2dbd 5bb5 2f3d
00000020: d3bf 3bbe 7c7e 97bd a56c 08bd 3332 03bd
00000030: 64ab 33bd a6f5 97bd 28dd e8bd eab6 86bc
00000040: 4ec8 2ebd 6957 d2bd 0e6a 7dbd bf8f 533c
00000050: 818e 873d cc36 7fbb 70ab 85bd 3bc2 543c
00000060: a8b5 1a3d 2f21 9ebd 1b5c 9fbb 55df 293e
00000070: 6156 0b3d 3ef5 533d 13ee af3c c647 263d
00000080: 0366 c63d 5464 d93d 2aa8 9bbd 8d2d 53bd
00000090: a15b aa3d e8e4 a93d 2f79 0c3d 80ae 0fbd
000000a0: ce95 a5bd 0294 97bd e4c5 c63b cdaa 39bd
000000b0: 5888 80bd 6020 0cbe 2690 d4bc 5a86 cf3d
000000c0: 8c5f 8ebd f66b d5bd 3a88 c5bc 5268 933d
000000d0: d6fb 44bc e60b d0bc 2c9f 9c3d ba51 543d
000000e0: 59b1 0abd 7a71 74bd 8417 b43d bef4 df3d
000000f0: d4d4 c4bb f979 9fbd 603f 00bd e2f3 143d
00000100: b0a6 473d 5179 1f3e 660e cbbb ef2e ddbb
00000110: eb5b 2c3e 1ea4 453d abcc 89bd 6787 b63c
00000120: 8ec9 a53b c59d 3abd eae0 febd 3dd2 1e3d
00000130: beeb 67bc e5d5 05bd fd5e 81be 1fde 333d
00000140: 15ef a13d 171a fe3c 5454 3ebe 6d44 343d
00000150: 2583 b53d 099e 37bb 6907 37bd 7158 793d
00000160: 4431 fb3d 5348 b83c a8e2 6cbd 0740 c73d
00000170: e287 3bbc 6671 783d 7494 41be 5ef6 7f3d
00000180: 4ad1 bd3a 14b6 963d 26b6 883c b789 82bc
00000190: 9247 c93c f3bf cd3d 10f1 83bc 0b93 2b3d
000001a0: 0581 653d 5d4d 433c 6d48 8a3d 4548 b5bc
000001b0: bb91 b1bd 847f ff3c 7f3b 173e 481a 83bd
000001c0: 5361 bfbd 2b81 dbbd 4ce0 aabd 237b ac3c
000001d0: 4864 63be fe1d 56bd 02c7 86bd f682 f8bc
000001e0: 0b6b 0abe af2d 32bc 30c9 e13b 64bf 9c3c
000001f0: 2444 bfbc 4314 333e 17bc 193b 6e51 64bd
00000200: f0fd 2c3d 37dc 37be 567a e3bd b51b 043d
00000210: a9d5 dd3c 314c 173b ef1d 683e deee bc3d
00000220: 71d9 57bd 4458 ed3d 666d 613e c1ab b13d
00000230: 1b6c 89bd 24d0 053d 0429 843d a397 df3d
00000240: 6eff a7bd af39 d3bc 0be6 84bb 1499 fc3c
00000250: f6b6 a6bb 98e9 1c3d 741f 82ba f376 3ebd
00000260: 3573 8d3d c705 9a3c 5a4d b53c 2489 80bd
00000270: 91bf 053d 7f89 97bd ca3d fd3c 99fe 643d
00000280: 84a4 cf3d c0d6 f63d 7766 a5bc 218e acbd
00000290: 1f51 a3bc bf1b f43c d2b0 cc3a 4701 cab9
000002a0: 0d60 f8bd 9303 53bd ffe0 d2bc 3ae1 56bc
000002b0: 6ff1 94bd 262f 09bd b62a 353c c54f 7c3d
000002c0: 231b 10be df8f 99bc 59a6 9dbc 5a3a baba
000002d0: 57bc 4f3d 6b03 453b 8287 353d 5781 973d
000002e0: ac3a b63d e58d 453c 3127 9d3d db2d 2c3d
000002f0: a635 e73d 76d0 673d 9a0b 853d 8b95 5d3d
00000300: 3dea b33d 7c80 e03d ef53 f5bd eb3a fdbd
00000310: b714 ee3d aa5c 573d 5df7 0a3d e247 afbc
00000320: 3142 39bd e85b 8cbd 7dbf 9b3d d15f dbbc
00000330: d084 a7bd d6a8 60bd 3246 c73d 9f33 303d
00000340: 7d17 a2bd 6634 b7bd fd48 6dbd 6e33 023d
00000350: 8f11 f23c 74a8 943c 26bf d53d 192d b93c
00000360: 35ad 51bd de40 33bd 3c25 c33c ff77 bb3d
00000370: 5534 d73c 1f0b f8bb 1d29 843b 3563 3d3d
00000380: 1250 b33d 9bef aebe a794 a1bc 0df9 d53d
00000390: 85ca 033d 8ed8 3bbe f9c0 193e 1019 293e
000003a0: 6023 4bbd 31ca 003e 2d3b ad3e 39ed e93b
000003b0: 4a30 04be bd83 c4bb fb26 033e 3661 bf3c
000003c0: 720a 2ebe 0d79 84be 60c6 e3bd 1253 ed3c
000003d0: 1d74 08be 848b 8cbd cbd8 31be 6a7f dcbd
000003e0: 2018 d23c e855 ef3a 9120 b7bd 52d9 4ebe
000003f0: 7fa5 833c f963 ddbd e6fa c43b 11b7 8b3d

fc1.bias f4 [64]
0.04450308 0.015857106 -0.048453793 0.027493317 -0.0044299914 0.0099281855 0.028044071 0.024890687
-0.02884358 -0.0040985085 -0.006540081 0.06465026 0.008455621 0.07797624 -0.021968713 -0.036524475
-0.018613607 0.025606472 -0.033417728 -0.06042518 0.028534688 0.022890788 -0.0059585446 0.030611359
-0.03364343 -0.014171374 -0.022522101 -0.021507995 -0.0053167236 -0.002090268 0.009514524 -0.015924552
-0.017351406 0.087139726 -0.04096463 0.02280246 0.087105505 -0.011450255 -0.0029985183 -0.03415327
0.007549256 -0.028261412 0.035182 -0.023941977 0.020604637 0.03164067 -0.042310312 -0.0037930463
-0.09522489 0.0076932185 -0.009477325 -0.036486108 0.015383169 -0.014721222 0.013051344 -0.043769114
-0.008532727 0.035064463 -0.034581047 0.005074752 -0.053596366 -0.047088042 0.0016598499 -0.027574249
00000000: dd48 363d c3e6 813c 7c77 46bd aa39 e13c
00000010: 7629 91bb d4a9 223c aebc e53c 8ee7 cb3c
00000020: 5f49 ecbc c84c 86bb 2d4e d6bb 5b67 843d
00000030: 7289 0a3c 02b2 9f3d bbf7 b3bc b09a 15bd
00000040: 907b 98bc aac4 d13c 07e1 08bd 6580 77bd
00000050: 94c1 e93c 7685 bb3c e53f c3bb acc4 fa3c
00000060: b1cd 09bd 0d2f 68bc 4580 b8bc 8931 b0bc
00000070: e937 aebb e1fc 08bb cee2 1b3c 3574 82bc
00000080: 8924 8ebc 5076 b23d 87ca 27bd 39cc ba3c
00000090: 5f64 b23d da99 3bbc ca82 44bb 4de4 0bbd
000000a0: c05f f73b 7a84 e7bc 001b 103d f721 c4bc
000000b0: 0ecb a83c a699 013d 944d 2dbd c294 78bb
000000c0: 4405 c3bd 6517 fc3b c846 1bbc 7572 15bd
000000d0: b009 7c3c 4831 71bc 4ed5 553c 3e47 33bd
000000e0: dacc 0bbc c19f 0f3d dba4 0dbd 1b4a a63b
000000f0: dd87 5bbd 64df 40bd 528f d93a 64e3 e1bc

fc2.weight f4 [36, 64]
0.05351105 0.014125112 0.06396578 0.06426711 -0.0006266877 0.15352406 0.010204842 0.07504484
-0.07597908 -0.08865519 -0.0857318 0.063076794 -0.119296916 0.12715907 -0.02520601 -0.115843795
-0.07473867 0.029623514 -0.05783677 -0.081575215 -0.05081525 0.1482996 -0.0005070196 0.05484754
-0.088847816 -0.105885044 -0.025581567 -0.09653638 0.0954456 0.0735335 0.03164954 -0.008030449
-0.17621051 0.034430783 -0.002707974 -0.0187691 0.0063944445 0.03310165 -0.08088415 -0.12308316
-0.09621372 0.08010133 0.10119472 0.022013528 0.063218854 -0.050551653 0.025468545 0.0149217155
-0.07383835 0.06266592 -0.037495524 -0.017911255 -0.104493774 0.060437933 0.07219162 0.00081899634
-0.022699969 0.054378774 -0.01554045 -0.08023737 0.07873825 0.09961487 -0.16887343 -0.07187464
-0.032037176 0.0074568107 0.11999299 -0.080321275 -0.08759717 -0.02586562 0.027371539 0.054648023
-0.12979254 0.067037486 -0.03810531 0.13972129 -0.028463557 0.10992095 -0.13861907 -0.040986456
-0.074201815 -0.03972928 -0.028532306 0.024671892 -0.03356249 0.06956835 -0.10507232 -0.13634624
-0.15969484 -0.14023308 -0.1239978 -0.14460565 -0.0899283 -0.09207231 -0.115744874 -0.011779719
-0.11392726 0.12161839 -0.093387984 -0.0012689319 -0.0379839 -0.03821059 0.064227246 0.0773787
0.14857581 0.04322909 -0.011999308 0.034645803 -0.104602575 0.1538768 0.16630138 -0.11124106
0.064738244 0.036989912 0.1245002 0.049390823 -0.035724647 0.1128914 -0.11272631 -0.08227124
0.042673953 -0.1955513 -0.025283081 0.05435277 -0.06889211 0.0059713474 0.1264472 -0.04105026
-0.076827824 -0.09332147 -0.034918778 0.02598797 0.0812414 -0.18348025 0.08555325 -0.12614128
0.021864807 -0.107379906 0.063499525 0.15824501 0.106672704 0.1424444 0.19324587 0.06667968
0.08762599 0.15521558 -0.29403383 -0.076398805 -0.03698127 -0.20844877 0.035637412 0.13490283
0.09628099 -0.020283509 -0.033544496 0.009181049 -0.0007573839 -0.037485085 -0.11197739 0.078403845
-0.11234813 0.00134693 0.11729712 -0.062053133 -0.17847872 -0.018721418 -0.07152929 -0.12385658
0.06029265 -0.024879575 -0.17357245 -0.06733039 -0.13669449 -0.16442694 -0.10009657 0.084578924
-0.07175312 -0.04194491 0.090678684 0.03339519 -0.06571896 0.112714745 0.018404448 0.14994645
0.042745937 -0.06655812 0.046757102 -0.113615714 0.05088509 -0.12646084 0.17231998 0.0065558716
-0.1528192 0.008625552 0.019450538 0.002399846 0.17168081 0.13127792 -0.12582926 -0.1061683
0.069567055 0.009417115 -0.0937131 -0.25434247 -0.010661339 0.036105 -0.07899011 0.0043274425
0.071122475 -0.21183395 0.10524243 -0.008459951 0.01499712 -0.16900624 0.08419536 0.15577926
-0.12612483 -0.14239797 -0.07996554 0.12790798 0.010812364 -0.07699798 0.028579783 0.06515251
-0.053456627 -0.015594008 0.044262756 -0.0060806 -0.13884051 -0.064114064 -0.109606914 -0.06525635
-0.21382925 0.014319032 -0.10588777 0.12719886 -0.03960958 0.06801928 -0.07016402 0.03934942
0.058751598 0.019445434 0.11303028 0.087689675 0.011792935 -0.059595075 -0.11455179 -0.03716592
0.15315321 -0.13114299 -0.05660618 0.007296864 0.05572049 -0.07047479 0.0659469 0.05846557
00000000: 672e 5b3d 046d 673c 7e00 833d 799e 833d
00000010: 4d48 24ba 6935 1d3e 3632 273c 1cb1 993d
00000020: eb9a 9bbd da90 b5bd 2794 afbd 682e 813d
00000030: f151 f4bd fd35 023e d67c cebc 833f edbd
00000040: 9610 99bd 03ad f23c 40e6 6cbd e810 a7bd
00000050: a723 50bd dadb 173e 82e9 04ba d0a7 603d
00000060: d8f5 b5bd 42da d8bd 6f90 d1bc deb4 c5bd
00000070: fc78 c33d bb98 963d f3a2 013d 2592 03bc
00000080: 8770 34be 4b07 0d3d 4478 31bb a8c1 99bc
00000090: 7d88 d13b 9995 073d 97a6 a5bd 0613 fcbd
000000a0: b30b c5bd 2b0c a43d 2d3f cf3d b755 b43c
000000b0: e378 813d 400f 4fbd 69a3 d03c 367a 743c
000000c0: 9038 97bd fd56 803d e894 19bd a0ba 92bc
000000d0: d500 d6bd c48d 773d 33d9 933d eab1 563a
000000e0: 49f5 b9bc 47bc 5e3d 5f9d 7ebc 7e53 a4bd
000000f0: 8541 a13d e202 cc3d 28ed 2cbe 0333 93bd
00000100: 6a39 03bd 4358 f43b e2be f53d 7b7f a4bd
00000110: 2566 b3bd 23e4 d3bc 473a e03c 9bd6 5f3d
00000120: 56e8 04be f34a 893d 5014 1cbd 1913 0f3e
00000130: 682c e9bc 3c1e e13d 28f2 0dbe 6ae1 27bd
00000140: 1ff7 97bd 2bbb 22bd 95bc e9bc b51c ca3c
00000150: d278 09bd da79 8e3d 2830 d7bd 599e 0bbe
00000160: 0b87 23be 4399 0fbe 8ff2 fdbd 8113 14be
00000170: 542c b8bd 6890 bcbd a60b edbd b9ff 40bc
00000180: b252 e9bd 1013 f93d 3342 bfbd 4a52 a6ba
00000190: 0295 1bbd b582 1cbd 9389 833d b978 9e3d
000001a0: 4224 183e fc10 313d bf98 44bc c2e8 0d3d
000001b0: e039 d6bd e191 1d3e e94a 2a3e 5ad2 e3bd
000001c0: 7c95 843d bc82 173d f6f9 fe3d 084e 4a3d
000001d0: 0254 12bd 9b33 e73d 0ddd e6bd d37d a8bd
000001e0: e2ca 2e3d 9a3e 48be 771e cfbc 03a1 5e3d
000001f0: 4e17 8dbd 4bab c33b 607b 013e 5124 28bd
00000200: e857 9dbd 541f bfbd fe06 0fbd b9e4 d43c
00000210: e461 a63d 3fe2 3bbe 8b36 af3d 2e2b 01be
00000220: d31d b33c ffe9 dbbd 0a0c 823d fb0a 223e
00000230: 3877 da3d f2dc 113e 3fe2 453e 5b8f 883d
00000240: 4175 b33d d5f0 1e3e 9a8b 96be fa76 9cbd
00000250: ac79 17bd 9873 55be 89f8 113d f823 0a3e
00000260: f82e c53d 9a29 a6bc f465 09bd 1c6c 163c
00000270: 2c8b 46ba f689 19bd 6754 e5bd 3292 a03d
00000280: c716 e6bd 798b b03a 7939 f03d 6d2b 7ebd
00000290: 20c3 36be a95d 99bc f37d 92bd 85a8 fdbd
000002a0: 6df5 763d 40d0 cbbc fabc 31be 84e4 89bd
000002b0: a4f9 0bbe 895f 28be 6eff ccbd b737 ad3d
000002c0: 4df3 92bd 6dce 2bbd bfb5 b93d 65c9 083d
000002d0: a997 86bd fdd6 e63d edc4 963c 908b 193e
000002e0: 5d16 2f3d a04f 88bd 6084 3f3d 5baf e8bd
000002f0: e26c 503d f37e 01be a674 303e a3d2 d63b
00000300: a37c 1cbe 3052 0d3c bc56 9f3c bc46 1d3b
00000310: 18cd 2f3e b86d 063e 63d9 00be c46e d9bd
00000320: 2c79 8e3d 3e4a 1a3c a7ec bfbd 2d39 82be
00000330: e6ac 2ebc d6e2 133d 91c5 a1bd 38cd 8d3b
00000340: a9a8 913d 00eb 58be 5889 d73d 9b9b 0abc
00000350: 7bb6 753c f90f 2dbe 9e6e ac3d 9984 1f3e
00000360: de26 01be c6d0 11be f9c4 a3bd 4ffa 023e
00000370: 5726 313c 1eb1 9dbd 2620 ea3c ae6e 853d
00000380: 56f5 5abd 037e 7fbc dd4c 353d c53f c7bb
00000390: 352c 0ebe 3c4e 83bd 9779 e0bd 1fa5 85bd
000003a0: 0ef6 5abe 609a 6a3c b0db d8bd 6b40 023e
000003b0: a83d 22bd b14d 8b3d 27b2 8fbd dc2c 213d
000003c0: 84a5 703d 084c 9f3c 6b7c e73d a596 b33d
000003d0: 2837 413c f719 74bd 219a eabd 4b3b 18bd
000003e0: 32d4 1c3e 594a 06be e2db 67bd 881a ef3b
000003f0: 2b3b 643d 1655 90bd 2b0f 873d 9879 6f3d

fc2.bias f4 [36]
0.08113371 0.03233122 -0.07438891 -0.042310562 -0.15568064 0.11347508 -0.14622702 -0.008009119
0.017853558 -0.034506 -0.0789061 0.15764035 0.050193846 0.06942583 -0.04459203 -0.0846196
0.005549334 0.04821352 0.19019216 0.054176487 -0.03371429 0.1799703 0.17098564 0.026099747
-0.0762987 -0.13533868 0.07710895 0.07646506 0.11328772 0.05987406 0.13040939 -0.0049865465
-0.11561569 -0.04744246 0.05046593 0.013207183
00000000: 6e29 a63d be6d 043d 3659 98bd d74d 2dbd
00000010: bf6a 1fbe 9f65 e83d 89bc 15be ae38 03bc
00000020: a041 923c 2a56 0dbd 8599 a1bd 796c 213e
00000030: 1098 4d3d 212f 8e3d 22a6 36bd 0a4d adbd
00000040: 30d7 b53b 8a7b 453d bcc1 423e 2ae8 5d3d
00000050: ff17 0abd 224a 383e dc16 2f3e 23cf d53c
00000060: 7e42 9cbd 3996 0abe 4ceb 9d3d b799 9c3d
00000070: 6403 e83d 813e 753d 0a8a 053e 2f66 a3bb
00000080: ebc7 ecbd 0653 42bd 5db5 4e3d f162 583c
