best_model_baseline_soft.pth (torch, 149644 bytes, 8 tensors)

conv1.weight f4 [8, 3, 3, 3]
0	0x3e18cd03	0.14921956
1	0xbea10d06	-0.3145525
2	0xbeb987c3	-0.3623639
3	0x3d556dcf	0.052106675
4	0x3ca9c890	0.020725518
5	0xbea10a48	-0.31453156
6	0x3ef8035b	0.4844006
7	0xbd71d99a	-0.05904541
8	0xbd2a4510	-0.04156977
9	0xbc9be003	-0.019027716
10	0xbc5a49a7	-0.013323224
11	0xbe9f4a37	-0.3111131
12	0x3dd39e48	0.10332924
13	0xbda18a31	-0.07887686
14	0xbe6d0978	-0.23148143
15	0x3edcdb54	0.43136084
16	0x3e08b509	0.1335031
17	0x3d3d11f3	0.046159696
18	0x3d3362c0	0.043795347
19	0xbe01c235	-0.1267174
20	0x3d53bab6	0.051691733
21	0x3ec0e69c	0.3767594
22	0xbdd200ca	-0.10254057
23	0x3d981a63	0.07426908
24	0x3e828329	0.25490692
25	0x3ec26685	0.3796884
26	0x3d5ab310	0.053393424
27	0xbceb67e1	-0.028736057
28	0x3eed37fb	0.46331772
29	0x3f55131d	0.8323229
30	0xbda368f0	-0.079789996
31	0x3f09a196	0.53762186
32	0x3f56812c	0.8379085
33	0x3d64d65a	0.055868484
34	0x3ee85026	0.45373648
35	0x3eb7061a	0.35746843
36	0x3d524e7a	0.051344372
37	0x3f2a1aaa	0.66446936
38	0x3f942c02	1.157593
39	0x3dcb0897	0.09913748
40	0x3f822aa2	1.016926
41	0x3fb1ee3c	1.3900828
42	0x3e7c7592	0.24654225
43	0x3ef8a60f	0.48564193
44	0x3f689c90	0.90863895
45	0xbe25df99	-0.16198577
46	0x3e8b384c	0.2719139
47	0x3f1aa3ad	0.60406
48	0xbe4974ed	-0.1967351
49	0x3f0bc763	0.54601115
50	0x3f66649b	0.8999726
51	0xbd04fbc1	-0.032466654
52	0x3dbfd7d6	0.09367339
53	0x3ecf0da2	0.4044009
54	0x3dd2ef12	0.10299505
55	0x3c93ab9a	0.018026162
56	0xbd399006	-0.045303367
57	0x3ec5bbbd	0.38619795
58	0xbcadc2d7	-0.021211071
59	0x3d171117	0.036881533
60	0x3e67ad1e	0.22624633
61	0x3e2a7b8a	0.16648689
62	0x3d9f9c8c	0.07793531
63	0x3e40bd16	0.1882213
64	0xbdfb0de4	-0.12258509
65	0x3d68f88a	0.05687765
66	0x3e936902	0.28791052
67	0xbe1024a8	-0.14076483
68	0xbe12cef5	-0.1433676
69	0x3e9bae97	0.3040664
70	0x3e228c53	0.15873842
71	0xbd1db31e	-0.038500898
72	0xbe96551f	-0.29361817
73	0xbea32b48	-0.31868958
74	0xbeb18d95	-0.3467833
75	0xbdc5dc2f	-0.09661137
76	0xbe4ffe03	-0.20311742
77	0xbd905465	-0.07047347
78	0xbcdc7ffc	-0.026916496
79	0xbe9be85a	-0.30450708
80	0xbe403eb5	-0.18773921
81	0x3e1df22b	0.15424411
82	0x3ec084cb	0.37601313
83	0x3edb159f	0.42789933
84	0x3ced9d65	0.029005716
85	0x3eb41f43	0.351801
86	0x3edd6ce6	0.43247145
87	0xbe08e670	-0.13369155
88	0xbcad52ca	-0.021157641
89	0xbe0384a8	-0.12843573
90	0x3cec0cd1	0.028814705
91	0x3ea1dc52	0.31613404
92	0x3f3f916e	0.74831283
93	0x3e3f73a8	0.18696463
94	0x3f4359e5	0.76309043
95	0x3f307179	0.68923146
96	0x3dca8c76	0.09890072
97	0x3e98bafe	0.29830164
98	0xbca10af9	-0.019658552
99	0xbe4fbac5	-0.2028609
100	0x3e93b732	0.28850704
101	0x3eda43a6	0.42629737
102	0x3d66e33b	0.056369048
103	0x3e3e15ec	0.1856305
104	0x3ef3e576	0.47636002
105	0xbe394d24	-0.18095833
106	0x3dc73680	0.09727192
107	0x3d1a6161	0.037690524
108	0x3ec5aa74	0.38606608
109	0x3e8cb7b1	0.27483895
110	0x3e274f73	0.16338901
111	0x3f0ffa0d	0.5624092
112	0x3f0f12cc	0.55888057
113	0x3b82927e	0.0039847484
114	0x3e6c3169	0.23065723
115	0x3dba3ef1	0.09094036
116	0xbdf31ed6	-0.11871116
117	0x3edabaf3	0.42720756
118	0x3f0267cd	0.5093964
119	0x3eaa79c7	0.33296034
120	0x3f2e6fad	0.68139154
121	0x3f0520ea	0.5200335
122	0x3e976e11	0.29576162
123	0x3e5f484f	0.21804927
124	0x3daaaf7e	0.08334254
125	0x3c1103ef	0.0088510355
126	0x3e1f725a	0.15570965
127	0x3eb42c55	0.35190073
128	0xbc5c36d5	-0.013440807
129	0x3e11f28a	0.14252678
130	0x3e9cbe28	0.30613828
131	0xbe026b97	-0.12736355
132	0x3d9b15c2	0.07572509
133	0x3c09961c	0.008397605
134	0xbeb72957	-0.35773727
135	0x3ece14bb	0.4025019
136	0x3e896bdb	0.268401
137	0xbe9d82bb	-0.30763802
138	0x3e9d566f	0.30730006
139	0x3da9fc1c	0.08300039
140	0xbee36ff5	-0.44421354
141	0x3eb28160	0.3486433
142	0xbdc9942f	-0.09842717
143	0xbe4fc86c	-0.20291299
144	0x3ecd155f	0.40055367
145	0x3e214da0	0.15752268
146	0xbed1d865	-0.40985408
147	0x3e0ad1eb	0.1355664
148	0xbde57cc2	-0.11205436
149	0xbe478230	-0.19483256
150	0x3ec1b774	0.37835276
151	0xbdab1554	-0.083536774
152	0xbe80724a	-0.25087196
153	0x3e8419ea	0.2580102
154	0xbcc44ff2	-0.023963902
155	0xbe1bc6ba	-0.15212527
156	0x3eb0d136	0.34534615
157	0x3e200271	0.15625931
158	0xbe94418b	-0.28956255
159	0x3e7a0be5	0.244186
160	0xbe413270	-0.18866897
161	0xbec37a59	-0.3817928
162	0xbeb5cb1f	-0.35506532
163	0x3cb7e068	0.022445872
164	0x3e209fd9	0.15685977
165	0x3e0177de	0.12643382
166	0x3f23ac35	0.6393464
167	0x3f56c45f	0.8389339
168	0x3e812268	0.25221562
169	0x3f208288	0.62699175
170	0x3f2bdc0d	0.67132646
171	0xbe362a6a	-0.17789617
172	0x3e1de172	0.15418032
173	0x3ee11a67	0.43965456
174	0x3eb2bd91	0.34910253
175	0x3f4e947e	0.8069533
176	0x3f70f312	0.94120896
177	0x3f1829f6	0.5943903
178	0x3f76e38c	0.9644096
179	0x3f40d902	0.7533113
180	0xbef59e69	-0.4797242
181	0xbd12ba70	-0.035822332
182	0xbd958bbe	-0.07302044
183	0x3df28f3d	0.11843727
184	0x3f46615f	0.77492326
185	0x3eef5907	0.4674761
186	0xba92aeee	-0.0011191049
187	0x3ec225eb	0.37919554
188	0x3ee8fb26	0.4550411
189	0x3e4f8102	0.20264056
190	0x3e58614f	0.2113087
191	0xbe73803d	-0.23779388
192	0x3e512b6e	0.20426723
193	0xbdd5dd26	-0.10442571
194	0xbe9bfbff	-0.30465695
195	0x3d1dd90c	0.03853707
196	0xbe2280c2	-0.1586943
197	0xbe950143	-0.29102525
198	0x3eab2381	0.33425525
199	0x3db2c55d	0.0872905
200	0xbe9ac12c	-0.30225503
201	0x3e73decb	0.23815458
202	0xbe771309	-0.24128355
203	0xbe9d0a15	-0.30671754
204	0x3d55f2b1	0.0522334
205	0xbe56c01e	-0.20971724
206	0xbe8a5678	-0.27019095
207	0x3e87447a	0.2641943
208	0x3e516c71	0.20451523
209	0xbc7d5bda	-0.015463794
210	0x3e4e34bd	0.20137306
211	0xbc61d0e7	-0.013782716
212	0x3c5f0bf5	0.013613691
213	0x3e1a32f1	0.15058495
214	0x3d1e6c7a	0.03867767
215	0xbd1d99e9	-0.03847686

conv1.bias f4 [8]
0	0x3ea55bc3	0.3229657
1	0xbe919624	-0.2843486
2	0x3e971d1e	0.29514402
3	0xbeb5db1d	-0.35518733
4	0xbf225f1b	-0.6342637
5	0x3e03f487	0.12886249
6	0xbf3f9d29	-0.7484918
7	0x3ed76bdb	0.42074475

conv2.weight f4 [16, 8, 3, 3]
0	0x3e67d91e	0.22641417
1	0xbd59fe55	-0.053221066
2	0x3b29c22a	0.0025903084
3	0x3e9897e4	0.29803383
4	0x3e9bcf93	0.30431804
5	0x3e890b13	0.2676626
6	0x3d175a7a	0.03695152
7	0x3e29b8f2	0.16574457
8	0x3ed90c02	0.42391974
9	0xbe64a006	-0.22326669
10	0xbe81b704	-0.25334942
11	0xbe5cf265	-0.21576841
12	0xbd5ee846	-0.054420732
13	0x3c93363e	0.0179702
14	0xbe203ccc	-0.15648192
15	0x3eaba399	0.33523253
16	0x3e94de1a	0.290757
17	0x3e6266a5	0.22109468
18	0xbce96882	-0.028492216
19	0x3e141ca7	0.14464055
20	0xbce57278	-0.028008685
21	0x3dadb3e4	0.08481577
22	0x3e0bb046	0.13641462
23	0xbccfec00	-0.025381088
24	0xbdea56ec	-0.1144236
25	0xbda16b67	-0.078818135
26	0x3e0fa1d4	0.14026576
27	0xbe8f61d6	-0.2800433
28	0xbe95e2b1	-0.29274514
29	0xbe38b67a	-0.1803836
30	0xbd1939b7	-0.037408557
31	0xbe12038f	-0.1425917
32	0xbe18687e	-0.1488361
33	0x3e42bf5a	0.19018307
34	0x3e0cd554	0.13753253
35	0x3e6595a4	0.22420365
36	0xbe0f1147	-0.13971435
37	0xbeab697c	-0.33478916
38	0xbe7b208e	-0.24524137
39	0xbc7c8f5e	-0.015415041
40	0x3da4765d	0.080303885
41	0xbd91d501	-0.071207054
42	0x3e4cdb90	0.20005631
43	0x3e3b3515	0.18281968
44	0x3eb634e8	0.3558724
45	0x3c1950c4	0.009357635
46	0xbecba489	-0.39773968
47	0xbe3b705a	-0.18304577
48	0x3dfbd97f	0.122973435
49	0xbdff7043	-0.12472584
50	0x3e2f906f	0.17144941
51	0xbe02977d	-0.127531
52	0xbd873dde	-0.06603597
53	0x3e7ddb96	0.24790797
54	0xbe8552a4	-0.26039612
55	0xbec6166d	-0.38688985
56	0xbe9aeb99	-0.30257872
57	0x3e3ddea0	0.18541956
58	0x3de54769	0.11195261
59	0xbd91910a	-0.07107742
60	0x3e9b588e	0.30341
61	0x3eb0472e	0.34429306
62	0x3e830aed	0.25594273
63	0xbd480300	-0.048830986
64	0xbe430d94	-0.19048148
65	0xbd8d6c9a	-0.0690548
66	0x3d393768	0.045218855
67	0xbde56622	-0.11201121
68	0x3d3a2e11	0.04545409
69	0xbe28865d	-0.16457506
70	0xbea371da	-0.319228
71	0x3ca9a1b8	0.020706996
72	0x3dc4e325	0.09613637
73	0x3dfd40f0	0.123659015
74	0xbddbb1bb	-0.10727259
75	0xbb659888	-0.0035033543
76	0xbdb9eaf8	-0.0907802
77	0xbe02dd56	-0.12779745
78	0xbdb75a49	-0.089527674
79	0xbe4fea3d	-0.20304199
80	0xbe03b175	-0.12860663
81	0x3e05cd76	0.13066658
82	0xbe9bc724	-0.3042537
83	0xbd107ce5	-0.03527536
84	0xbe27a948	-0.1637317
85	0xbdfabfd0	-0.122436166
86	0x3e7a9f20	0.24474764
87	0xbe51b514	-0.20479232
88	0x3dc56ed5	0.0964028
89	0x3e563b0e	0.20920965
90	0xbe5adbc8	-0.21372902
91	0xbd7f6364	-0.062350646
92	0xbdba5986	-0.090991065
93	0xbe2ad425	-0.16682489
94	0xbde9ba3c	-0.114124745
95	0xbe822c9a	-0.25424653
96	0x3d0d58ac	0.034508392
97	0xbda8726e	-0.08224951
98	0xbe415a6e	-0.18882152
99	0x3e535fa3	0.20641951
100	0xbea4e301	-0.3220444
101	0x3bb7df68	0.005611349
102	0xbda24d76	-0.07924931
103	0xbe7e841f	-0.24855088
104	0x3e0d6960	0.13809729
105	0xbe5563e0	-0.2083888
106	0xbdc39dbe	-0.09551571
107	0x3ea842fa	0.328636
108	0x3e447959	0.19186915
109	0xbe07edcb	-0.13274305
110	0x3c8a8af8	0.016911969
111	0x3d9ba847	0.07600456
112	0xbea21d0c	-0.31662786
113	0x3c805ffc	0.015670769
114	0x3bfe694a	0.0077640163
115	0xbe7289b0	-0.23685336
116	0x3e9c797a	0.3056143
117	0x3ef68eca	0.48155814
118	0x3e9ad14e	0.30237812
119	0xbe205d16	-0.1566051
120	0x3e9517cf	0.29119727
121	0x3e2ef81c	0.17086834
122	0xbb418aa4	-0.00295321
123	0x3eb79f34	0.3586365
124	0x3d33d214	0.043901518
125	0x3d1576fd	0.03649043
126	0x3dc9e534	0.0985817
127	0xbdf86284	-0.12128165
128	0x3d87d2e0	0.06632018
129	0x3d825785	0.06364349
130	0xbe2130f7	-0.15741335
131	0x3e4c1da1	0.19933178
132	0xbd29e09a	-0.041473962
133	0xbc9bd14b	-0.019020697
134	0x3e8e0a0c	0.2774204
135	0x3e3c0474	0.18361074
136	0x3eaa6763	0.33282003
137	0xbc071bf0	-0.008246407
138	0x3e82acf2	0.25522572
139	0x3d358985	0.044320602
140	0xbe07669a	-0.13222733
141	0x3d1b7654	0.037954643
142	0xbe03d10b	-0.12872712
143	0xbd575fe2	-0.052581675
144	0x3db66581	0.08906079
145	0x3d4d7c6c	0.050167486
146	0x3e44bd04	0.19212729
147	0xbd1d1d61	-0.038358096
148	0x3d78eccd	0.060772706
149	0xbd25714a	-0.040391244
150	0x3e610e95	0.21978219
151	0xbdcb28bb	-0.09919878
152	0x3c3f5cc4	0.011679832
153	0x3e054cd7	0.13017593
154	0xbcda9229	-0.026681023
155	0xbec1731b	-0.3778313
156	0x3e23e644	0.16005808
157	0xbe62be81	-0.22142984
158	0xbe64fc89	-0.2236196
159	0x3e0305d2	0.12795189
160	0xbdcb62a2	-0.09930922
161	0xbde14a89	-0.110005446
162	0xbd273047	-0.040817525
163	0xbe317a54	-0.1733182
164	0x3e22200f	0.15832542
165	0xbe3281c3	-0.17432313
166	0xbb41414c	-0.0029488383
167	0x3e08d1b3	0.13361244
168	0x3d99f8a1	0.07518125
169	0xbd427113	-0.047471117
170	0xbd83e9ac	-0.06441054
171	0x3e36ec60	0.17863607
172	0xbd06b50b	-0.0328875
173	0xbeb68f1b	-0.35656056
174	0x3e21595c	0.15756744
175	0xbe2f0129	-0.17090286
176	0xbdb75770	-0.08952224
177	0xbbdb05d5	-0.006684045
178	0xbe1aeb1a	-0.15128747
179	0x3d94a946	0.07258849
180	0x3e7b3025	0.24530084
181	0x3d7237f3	0.05913539
182	0xbe09e0e7	-0.134647
183	0x3e5929bd	0.21207328
184	0x3d91cdf4	0.071193606
185	0xbe2c0bb6	-0.16801342
186	0x3e4c8c63	0.19975428
187	0xbd85a6b3	-0.06525936
188	0xbdb1e097	-0.08685415
189	0x3e494586	0.19655427
190	0xbbd902b2	-0.0066226358
191	0x3e5afd15	0.21385606
192	0x3e9e3ca8	0.30905652
193	0x3daf1038	0.08548015
194	0xbdbe5ad8	-0.09294671
195	0x3ee66889	0.4500163
196	0x3d8026cc	0.062574
197	0xbea18151	-0.31543973
198	0x3e6877aa	0.22701898
199	0xbd52e113	-0.05148418
200	0xbe11574e	-0.1419346
201	0x3df4984d	0.119431116
202	0xbd7f907b	-0.062393647
203	0xbe3006f7	-0.17190157
204	0x3d851453	0.06498017
205	0xbddf19a3	-0.10893562
206	0x3d2b9941	0.0418942
207	0xbdfec4a5	-0.12439851
208	0xbb7a992c	-0.003823827
209	0x3d18c83f	0.037300345
210	0x3e8904a6	0.2676136
211	0x3e029716	0.12752947
212	0x3e013965	0.1261955
213	0x3edc6cd2	0.43051773
214	0x3cd716f2	0.026256058
215	0x3dfbef2c	0.12301478
216	0x3dcb9a86	0.099415824
217	0x3dc23fed	0.09484849
218	0x3dc35739	0.09538121
219	0xbe2b85a1	-0.16750194
220	0xbe60ef68	-0.21966326
221	0x3e0ef05e	0.1395888
222	0xbe29f753	-0.16598253
223	0xbf3060e2	-0.6889783
224	0x3c06b77b	0.008222456
225	0x3e25b48e	0.16182157
226	0x3c197365	0.009365891
227	0xbe24187a	-0.16024962
228	0xbc644638	-0.013932757
229	0xbd9e7598	-0.07737273
230	0xbdd20a42	-0.10255863
231	0xbdff86b6	-0.12476866
232	0x3dd1a8a4	0.10237244
233	0x3de468f9	0.111528344
234	0x3b030eca	0.0019997829
235	0x3df6428f	0.12024414
236	0x3e2358d4	0.15951854
237	0xbd8bd28e	-0.068272695
238	0xbe84fd16	-0.2597434
239	0xbe018f78	-0.12652385
240	0xbd166f27	-0.036727097
241	0xbe26139c	-0.16218418
242	0xbe6c0e50	-0.23052335
243	0x3e0fc03c	0.14038175
244	0x3d570100	0.052491188
245	0xbd913481	-0.070900925
246	0xbdd32487	-0.103097014
247	0x3dbea095	0.09307972
248	0x3ceb7530	0.028742403
249	0xbc4e64bc	-0.012597259
250	0x3df4762b	0.11936601
251	0x3e2fd164	0.1716972
252	0x3e9a77ea	0.30169612
253	0xbdf26d78	-0.11837286
254	0x3da1e466	0.07904892
255	0x3c07ec8b	0.008296142

conv2.bias f4 [16]
0	0x3d953470	0.07285392
1	0xbdecf726	-0.11570577
2	0x3d9d5580	0.076823235
3	0xbe7587cc	-0.23977584
4	0xbe434d7c	-0.19072527
5	0xbe1244cc	-0.14284056
6	0xbeea88d4	-0.45807517
7	0xbec91cdf	-0.3927984
8	0x3d07b94d	0.0331357
9	0xbd3639ab	-0.04448859
10	0xbd967fd1	-0.07348598
11	0xbe025258	-0.12726724
12	0xbcd44dcb	-0.025916
13	0xbe8a13b2	-0.2696815
14	0x3db6442a	0.0889972
15	0xbeddc93a	-0.43317586

fc1.weight f4 [64, 512]
0	0xbd1a97c2	-0.037742384
1	0xbc85d96f	-0.016339032
2	0x3d11bfd9	0.03558335
3	0x3d152067	0.036407854
4	0x3e3a23f5	0.18177779
5	0x3d9215e8	0.071330845
6	0x3b3eeb6e	0.0029132026
7	0xbe2d51bd	-0.16925712
8	0x3e850668	0.2598145
9	0x3bbc5da4	0.0057484675
10	0xbdc54427	-0.0963214
11	0x3a2a9f48	0.000650872
12	0x3e49f6b0	0.1972301
13	0x3ca5bf09	0.020232694
14	0xbd554b56	-0.0520738
15	0xbc223777	-0.009900919
16	0xbcf8b004	-0.030357368
17	0x3deda82b	0.11604341
18	0x3a62db24	0.00086538703
19	0x3dc8fcde	0.098138556
20	0x3c9773b1	0.018487783
21	0xbd73948f	-0.05946785
22	0xbdde56da	-0.10856409
23	0x3da31652	0.07963242
24	0x3d88e3c4	0.06684068
25	0xbcbe076a	-0.023196895
26	0xbcc66e55	-0.024222532
27	0x3d5f59b1	0.054528896
28	0xbd9d7df8	-0.07690042
29	0xbca3b880	-0.019985437
30	0xbdc754e8	-0.097329915
31	0x3cc2c4ed	0.023775542
32	0xbd6ccce9	-0.057812605
33	0xbb81f2c6	-0.0039657084
34	0x3dff5b52	0.1246859
35	0x3ca8b69d	0.02059489
36	0xbb856c95	-0.004071782
37	0xbe28abdf	-0.16471814
38	0x3d350512	0.04419429
39	0xbe0a0a61	-0.13480522
40	0x3d42a462	0.04752005
41	0xbdd368e1	-0.103227384
42	0x3e0d3728	0.13790572
43	0xbdde5973	-0.10856905
44	0x3d727192	0.05919034
45	0xbde941ce	-0.113895044
46	0x3d605f55	0.054778416
47	0xbd1e5a98	-0.038660616
48	0x3c052d3e	0.008128462
49	0x3bd4c0ad	0.0064926953
50	0x3d5e5b32	0.05428619
51	0x3db81a17	0.08989351
52	0xbcc2d32c	-0.023782335
53	0x3cf7b1a8	0.03023608
54	0x3d15f6b4	0.036612228
55	0x3cf0bb1e	0.0293861
56	0x3be6e60e	0.0070464676
57	0x3cdab7cc	0.02669897
58	0xbd9e783b	-0.07737776
59	0xbdea7283	-0.114476226
60	0x3e529157	0.20563255
61	0xbdec5411	-0.11539472
62	0xbdc0327d	-0.0938463
63	0xbd0232f7	-0.031786885
64	0xbb332791	-0.0027336816
65	0x3c31cd66	0.010852193
66	0x3d092348	0.033480912
67	0x3cea4fd6	0.028602522
68	0x3dd2d9fa	0.10295482
69	0xbd0cd790	-0.034385264
70	0x3d294d2e	0.04133337
71	0x3c865acf	0.016400723
72	0x3cf4c63d	0.029879684
73	0x3c06c003	0.00822449
74	0x3ce4c93a	0.027927984
75	0x3ce0972b	0.027415833
76	0xbd44bad6	-0.048029743
77	0xbcd92513	-0.026506936
78	0xbcd3f540	-0.02587378
79	0xbc932ee2	-0.017966691
80	0xbbe56244	-0.0070002396
81	0xbb06cfb4	-0.0020570578
82	0x3c9ad957	0.018902464
83	0xbc416b26	-0.011805331
84	0xbdec3ace	-0.115346536
85	0x3c9d800a	0.019226093
86	0x3b938eed	0.004503122
87	0x3db1185e	0.08647226
88	0x3cf5f1c3	0.030022508
89	0x3d917455	0.07102267
90	0xbc8e3e51	-0.0173637
91	0x3d930f86	0.07180695
92	0x3dc43004	0.09579471
93	0x3e4ee943	0.2020617
94	0xbce74e88	-0.028235689
95	0x3c549d06	0.01297689
96	0xbb5af66f	-0.0033411046
97	0xbd095337	-0.033526625
98	0x3dc14f37	0.09438937
99	0x3bfafaad	0.0076592774
100	0xbdf4161f	-0.11918282
101	0xbdc840f7	-0.09778016
102	0xbd4c2281	-0.049837593
103	0xbd19e21a	-0.037569143
104	0xbdbe3001	-0.092865
105	0xbd9bfc9a	-0.07616539
106	0xbd0c355c	-0.034230575
107	0xbdfcc0f2	-0.12341489
108	0xbd3af46a	-0.045643248
109	0xbafad093	-0.0019135646
110	0xbd82b6cf	-0.06382524
111	0xbde15b36	-0.11003725
112	0xbd29f5c2	-0.04149414
113	0x3c0042d0	0.007828429
114	0x3cc7dc83	0.02439714
115	0xbc30d7ac	-0.010793608
116	0xbd7bc7e0	-0.061469913
117	0xbd4ae03d	-0.049530257
118	0xbbbd9331	-0.005785369
119	0x3e0be457	0.13661323
120	0x3cc4386d	0.023952687
121	0xbc80157d	-0.015635246
122	0x3e1fe7ad	0.15615721
123	0x3da3372e	0.07969509
124	0x3d8ef8b2	0.069810286
125	0x3d5bada7	0.053632405
126	0x3ce877c8	0.028377429
127	0x3d963630	0.07334554
128	0x3d5129ed	0.051065374
129	0xbcc9093c	-0.024540536
130	0xbd848844	-0.06471303
131	0x3c343bba	0.011000568
132	0xbd5b1ab1	-0.05349225
133	0xbcd65115	-0.02616171
134	0xbd3144a2	-0.043278344
135	0xbbac2816	-0.005253802
136	0xbd5c5833	-0.05379505
137	0xbd305542	-0.04305006
138	0xbd2498f0	-0.040184915
139	0xbd754652	-0.059881516
140	0x3d018cc0	0.03162837
141	0x3c059bad	0.008154792
142	0xbd0e623c	-0.034761652
143	0xbd06a868	-0.03287545
144	0x3d3596a4	0.044333115
145	0xbcd1227a	-0.025529135
146	0xbcc7aac4	-0.02437342
147	0x3b84efff	0.00405693
148	0xbcef7e8c	-0.029235147
149	0xbd86f56a	-0.06589778
150	0xbc77085b	-0.015077676
151	0x3d70e2ba	0.058809973
152	0x3d984e6a	0.07436831
153	0x3c43a1fe	0.011940477
154	0xbd30fa47	-0.043207433
155	0x3c8e8894	0.01739911
156	0x3d5e9adb	0.0543469
157	0x3e009bfa	0.125595
158	0x3d442df1	0.047895376
159	0x3d90cd07	0.07070356
160	0x3bd0cc23	0.0063719912
161	0xbd8a8489	-0.0676356
162	0x3d98f146	0.07467894
163	0x3d95b1e8	0.073093235
164	0xbd8e2a13	-0.06941619
165	0xbd0b61af	-0.034028705
166	0x3d8a1f51	0.067442544
167	0xbd30f52e	-0.04320257
168	0x388f8164	6.842872e-05
169	0xbdb93c2c	-0.0904468
170	0x3a1450a4	0.00056577683
171	0xbd0ad132	-0.03389091
172	0x3d82a4c9	0.063790865
173	0xbda0b9d6	-0.078479454
174	0x3b2ff5e9	0.0026849455
175	0x3c82e612	0.015978847
176	0x3d1da2f4	0.038485482
177	0xbcdddb65	-0.027082155
178	0xbc8a1ebc	-0.016860358
179	0x3c3ae44f	0.011406972
180	0x3d1eecc9	0.038800035
181	0xbd9e0d83	-0.07717421
182	0xbd1b2c22	-0.037883885
183	0x3dd3a892	0.103348866
184	0x3d8872d8	0.0666253
185	0xbcfc7ab9	-0.030820237
186	0x3da19c39	0.07891125
187	0x3dd40536	0.103525564
188	0x3dcef9f0	0.101062655
189	0x3e010e4e	0.12603113
190	0x3da0a6f7	0.07844346
191	0x3d867ddc	0.065669745
192	0xbc816b26	-0.015798163
193	0xbd9b4f1b	-0.075834475
194	0xbd957045	-0.07296804
195	0x3c02083d	0.0079365345
196	0xbcf8d2f9	-0.030374037
197	0xbda4bce3	-0.0804384
198	0xbdd0d2a6	-0.10196428
199	0xbdb6b11d	-0.089205004
200	0xbcada94b	-0.02119889
201	0xbc6b2425	-0.014351879
202	0x3ad55fcc	0.001627916
203	0xbdd021b0	-0.101626754
204	0x3d784e65	0.060621638
205	0x3d24d9d2	0.040246792
206	0xbcc0c196	-0.023529809
207	0xbdcccfd9	-0.10000581
208	0xbd239a8d	-0.039942313
209	0x3d191ffa	0.03738401
210	0xbc8fa545	-0.017534861
211	0xbcc1a3c1	-0.023637654
212	0x3b1d4dad	0.0024002597
213	0x3cb09444	0.021555074
214	0x3d7d26ab	0.061804455
215	0x3d6501c7	0.055909898
216	0x3d5e17d5	0.054221947
217	0xbc93b8ae	-0.018032398
218	0x3c1b8f52	0.009494619
219	0x3d98ac39	0.07454724
220	0x3d20bf65	0.039245028
221	0x3d06cb09	0.032908473
222	0x3c8eafc1	0.01741779
223	0x3d06bb41	0.032893423
224	0xbbcb9763	-0.006213115
225	0xbe052e3e	-0.13005921
226	0xbd2cec30	-0.042217433
227	0x3cde81cd	0.027161503
228	0xbd91ee82	-0.0712557
229	0xbd710832	-0.058845706
230	0xbcd20ff0	-0.025642365
231	0xbcc76662	-0.024340812
232	0xbcc58e22	-0.024115626
233	0xbd2a2955	-0.041543324
234	0xbdc65e94	-0.09686008
235	0xbdedf73f	-0.11619424
236	0x3bd85d13	0.006602892
237	0x3c35a373	0.011086333
238	0xbca16909	-0.019703405
239	0xbc7bbd77	-0.015364996
240	0xbca9544c	-0.020670079
241	0x3d34f3a3	0.044177663
242	0xbd8deccc	-0.06929931
243	0xbd44673a	-0.047950007
244	0xbd503881	-0.050835136
245	0xbbb3fdd9	-0.0054929075
246	0x3d88fda8	0.06689006
247	0x3d0661d1	0.03280813
248	0xbc2db5a9	-0.010602393
249	0x3c3a413d	0.011368093
250	0x3da4e48a	0.08051403
251	0x3d701e4a	0.058622636
252	0x3e131161	0.14362098
253	0x3d368af7	0.04456612
254	0x3dbc85b2	0.09205188
255	0x3d371909	0.04470161

fc1.bias f4 [64]
0	0x3c804df5	0.015662173
1	0x3d9ed0d5	0.07754675
2	0x3c16bdf3	0.009200561
3	0x3d549e3c	0.051908717
4	0x3cbd4b9d	0.023107344
5	0x3d091b03	0.033473026
6	0xbc1902f0	-0.009339079
7	0x3db1de7f	0.08685016
8	0x3c6403f1	0.013916955
9	0x3c131557	0.008977256
10	0xbd09f60a	-0.033681907
11	0x3b5e3536	0.0033906228
12	0x387759f2	5.8973157e-05
13	0x3be5ef13	0.0070170253
14	0xbd0ce4cc	-0.034397885
15	0xbceac4a3	-0.028658217
16	0x3ccb38e7	0.024807407
17	0xbd3f387b	-0.046684723
18	0x3d422dc4	0.047406927
19	0x3d1aab65	0.03776111
20	0x3d5b44fc	0.053532586
21	0xbcfafceb	-0.030638179
22	0x3d02cc58	0.03193316
23	0x3d008df8	0.031385392
24	0x3b95aa8b	0.0045674494
25	0x3d148b68	0.03626576
26	0xbd37b3e8	-0.044849306
27	0xbd2ac3b3	-0.04169054
28	0xbce58e75	-0.02802203
29	0x3cd0f116	0.025505584
30	0x3d58091f	0.052743074
31	0x3cf54cb9	0.02994381
32	0x3c0a63fa	0.008446688
33	0x3d4487e6	0.047981165
34	0x3cfc4f30	0.030799478
35	0x3d7bffd5	0.061523277
36	0x3c8271fd	0.015923494
37	0x3c4ee158	0.012626968
38	0xb9a809af	-0.00032050672
39	0xbceef80c	-0.029171012
40	0xbd944010	-0.072387815
41	0xbc3d2378	-0.011544101
42	0x3d05fbe4	0.032710925
43	0x3bcdce2a	0.00628068
44	0xbca5ea35	-0.02025328
45	0x3d05091d	0.032479394
46	0xbc3130ef	-0.010814889
47	0xbb8589e2	-0.004075275
48	0xbd1b8194	-0.037965372
49	0x3debaca4	0.11507538
50	0xbbbb2dde	-0.005712255
51	0xbd063f18	-0.032775015
52	0x3c506ccb	0.012721251
53	0xbd29feac	-0.04150264
54	0xbd493a70	-0.049127996
55	0xbd06c2ae	-0.032900505
56	0xbd836cdd	-0.064172484
57	0xbcc39de3	-0.023878997
58	0x3e031f1d	0.12804838
59	0xbd641196	-0.055680834
60	0xbdb1acd5	-0.08675543
61	0xbcf7fb2b	-0.030271133
62	0x3e020934	0.12698823
63	0xbc3ea2bc	-0.011635479

fc2.weight f4 [36, 64]
0	0x3d11ac8a	0.035564937
1	0x3daeb044	0.08529714
2	0x3db7289f	0.08943295
3	0xbd37c955	-0.04486974
4	0x3d35168d	0.04421096
5	0xbd0b64eb	-0.03403179
6	0xbd8b0aaa	-0.067891434
7	0x3de64c57	0.112450294
8	0x3d61792c	0.0550472
9	0xbd2e4ccf	-0.04255372
10	0xbde3febb	-0.1113257
11	0x3d5aa8b6	0.05338355
12	0xbd7cc0f9	-0.06170747
13	0x3d562bc6	0.05228784
14	0x3d0e5f07	0.034758594
15	0x3c8dd419	0.01731305
16	0x3d913dab	0.0709184
17	0xbdcfcc38	-0.101463735
18	0xbde0cbe3	-0.10976388
19	0x3e2a4dcf	0.16631244
20	0xbd402bc6	-0.046916746
21	0x3d8651f5	0.06558601
22	0x3cbbc7a7	0.02292235
23	0xbd48e3d7	-0.04904541
24	0x3c033db7	0.008010319
25	0xbd4d569e	-0.050131433
26	0x3a64be91	0.00087259064
27	0xbc9b299c	-0.01894074
28	0xbe44f6c9	-0.19234766
29	0x39856107	0.00025440028
30	0x3cf4f40c	0.029901527
31	0x3d1938ba	0.037407614
32	0xbc8cab5f	-0.01717156
33	0x3dc87513	0.09787955
34	0x3da5e57c	0.08100411
35	0x3d7d6d7d	0.061871994
36	0xbda3fa31	-0.080067046
37	0xbd588e52	-0.052870102
38	0xbd961666	-0.07328491
39	0xbc0d3d71	-0.008620606
40	0xbe0709cc	-0.13187331
41	0x3dcc9221	0.099888094
42	0xbb5e340b	-0.0033905532
43	0xbd867dee	-0.06566988
44	0xbd49b81c	-0.049247846
45	0x3a925225	0.0011163397
46	0xbd9b5d7a	-0.075861886
47	0x3d9033ba	0.07041116
48	0xbda2c8c8	-0.07948452
49	0xbe548eda	-0.20757619
50	0xbbda04e1	-0.0066534136
51	0x3cc2f94e	0.023800518
52	0x3de2d664	0.11076048
53	0x3d4fbaef	0.050715383
54	0xbd20a9e7	-0.03922453
55	0xbda64ff4	-0.081207186
56	0x3c5d8573	0.013520586
57	0xbdc06edd	-0.093961455
58	0xbd237132	-0.039902873
59	0x3de7d2b6	0.11319487
60	0x3c65e6bb	0.014032061
61	0xbcfe433e	-0.031037923
62	0x3de2b351	0.11069358
63	0xbd510f84	-0.051040187
64	0x3d8ddf83	0.06927397
65	0xbefe9ea4	-0.49730408
66	0xbc20c468	-0.009812452
67	0x3db6571f	0.08903336
68	0x3de8c353	0.1136538
69	0xbe5d4b00	-0.21610641
70	0xbb1b12a7	-0.002366224
71	0xbe5570aa	-0.20843759
72	0x3dd13518	0.10215205
73	0xbd9227d2	-0.07136501
74	0x3b7c360f	0.003848437
75	0x3d3a00b8	0.04541084
76	0xbe2ca368	-0.1685921
77	0x3d84fc44	0.06493428
78	0x3daa815c	0.083254546
79	0x3bad0157	0.0052797007
80	0xbd9231f7	-0.07138436
81	0xbdca666e	-0.09882818
82	0x3e02b813	0.12765531
83	0x3def5cb6	0.11687605
84	0xbd08ed37	-0.03342935
85	0xbc3d8bc4	-0.011568967
86	0x3de16d00	0.11007118
87	0xbe7ed4d6	-0.24885878
88	0x3c844ee2	0.016150896
89	0x3dafa02f	0.085754745
90	0xbdf0dfb1	-0.11761416
91	0xbcd6a15f	-0.026199995
92	0x3cf5ca2e	0.030003633
93	0xbdc22bb3	-0.09480991
94	0xbe9d31ee	-0.30702156
95	0xbd5747c0	-0.05255866
96	0x3cfd0e45	0.030890593
97	0x3da51b27	0.080618195
98	0x3dbeb119	0.093111224
99	0x3cc78adb	0.024358204
100	0xbde2abf9	-0.110679574
101	0xbd6cc3aa	-0.057803787
102	0xbb2a1b16	-0.0025956086
103	0xbe0451c7	-0.1292182
104	0xbc8285f5	-0.015933016
105	0xbdd178d1	-0.10228122
106	0x3d3fcfbd	0.046828974
107	0x3e05cdde	0.13066813
108	0xbd85d7b5	-0.065352835
109	0x3d7d3588	0.06181863
110	0x3d33dcba	0.043911673
111	0xbd7c6571	-0.06162018
112	0xbd22fcd9	-0.039791916
113	0x3d762bc1	0.06010032
114	0x3d812a67	0.06306916
115	0xbd2f61da	-0.042817928
116	0xbdb735a5	-0.08945779
117	0x3d8a9a8a	0.06767757
118	0xbd94f1be	-0.07272671
119	0xbd9b8921	-0.07594515
120	0xba93d886	-0.0011279739
121	0xbd6ebd76	-0.058286153
122	0x3d5c6f3d	0.053817023
123	0xbe462368	-0.19349444
124	0xbd0fb7d5	-0.035087425
125	0xbdc1f6df	-0.09470915
126	0xbe1d2a3a	-0.1534814
127	0xbc5df15b	-0.013546313
128	0x3cb81560	0.02247113
129	0xbe9ab476	-0.30215806
130	0x3df30270	0.11865699
131	0x3e4ce205	0.20008095
132	0x3e368b53	0.17826585
133	0xbd048ff2	-0.03236384
134	0x3e50eb0a	0.2040216
135	0xbd9b17a2	-0.07572867
136	0xbe21616c	-0.1575982
137	0xbde147fd	-0.11000059
138	0x3db34480	0.087533
139	0xbce45ca8	-0.027876213
140	0xbe386c54	-0.18010074
141	0xbeb48f59	-0.35265616
142	0x3df96247	0.12176948
143	0xbdbde287	-0.09271722
144	0x3d9c217f	0.076235764
145	0x3cd4a261	0.025956335
146	0xbea8d6a0	-0.32976246
147	0x3dfec2d5	0.12439505
148	0x3d159713	0.03652103
149	0xbbcf60b4	-0.0063286666
150	0x3e865366	0.26235503
151	0xbd81b68f	-0.063336484
152	0xbda9c0f7	-0.08288758
153	0xbe49b62e	-0.19698402
154	0x3d1d202f	0.03836077
155	0xbd99e46c	-0.07514271
156	0xbc9b8840	-0.018985868
157	0xbebd665f	-0.36992165
158	0x3cde2379	0.027116524
159	0x3d8925a8	0.066966355
160	0x3e65a5d1	0.22426535
161	0x3d5da346	0.054110788
162	0xbb8c7639	-0.004286554
163	0xbe0c8a0c	-0.13724536
164	0xbdb961b3	-0.09051838
165	0x3dc35edb	0.095395766
166	0x3d1a7cf7	0.037716832
167	0xbdc94c6a	-0.09829028
168	0x3e129f4c	0.1431858
169	0x3c8bf672	0.017085288
170	0xbdbf7704	-0.09348872
171	0xbd324a10	-0.043527663
172	0x3d46b932	0.04851646
173	0xbdde2e82	-0.108487144
174	0xbd7b2cac	-0.0613219
175	0x3db265a2	0.08710791
176	0xbe31728e	-0.17328855
177	0x3de8da55	0.113697685
178	0x3a5f98f0	0.00085295644
179	0xbd2e0003	-0.04248048
180	0xbda2171b	-0.07914563
181	0xbdae59a5	-0.08513192
182	0xbde1eb8f	-0.11031257
183	0xbd5a46b9	-0.053290103
184	0xbd10fa74	-0.0353951
185	0xbdf96fa1	-0.12179495
186	0xbdfef8dc	-0.1244981
187	0xbdfc451d	-0.1231787
188	0x3cfd67a7	0.030933214
189	0xbca07003	-0.019584661
190	0xbea1e535	-0.31620184
191	0x3d90768e	0.070538625
192	0x3dc59cf6	0.096490785
193	0xbddef174	-0.10885897
194	0xbd284e06	-0.041090034
195	0xbe350874	-0.17679006
196	0x3ce1de89	0.027571933
197	0x3d0523b6	0.03250476
198	0x3e0ea6e3	0.1393085
199	0xbe1f21a3	-0.15540175
200	0x3c8ca6e4	0.017169423
201	0xbd369a69	-0.04458085
202	0x3dff2358	0.12457913
203	0xbdbbaa02	-0.09163286
204	0xbd4dc215	-0.05023392
205	0xbe8e8e25	-0.27842823
206	0x3e4117d2	0.18856743
207	0x3da74001	0.08166505
208	0xbd0b48fb	-0.034005146
209	0xbe02dc5a	-0.1277937
210	0xbdc4888e	-0.09596358
211	0xbcc7fdd1	-0.024413021
212	0x3dfe26e2	0.1240976
213	0x3d83a670	0.0642823
214	0x3da1d0b5	0.07901136
215	0xbe52f6da	-0.20601979
216	0xbd06ff07	-0.032958057
217	0x3e2dbc4b	0.1696636
218	0x3ddeb363	0.10874059
219	0x3d4e9e9a	0.050444223
220	0xbddbffe2	-0.10742165
221	0x3d205b6b	0.039149683
222	0x3da5ea50	0.08101332
223	0x3e00f340	0.12592793
224	0xbe847109	-0.2586749
225	0x3d930829	0.07179291
226	0xbdc54e84	-0.09634116
227	0xbec3e2e9	-0.38259056
228	0xbd8a3264	-0.067478925
229	0x3ae4d53d	0.001745857
230	0x3da82069	0.08209307
231	0xbcbac5cc	-0.022799395
232	0xbd44592c	-0.047936603
233	0x3da0ef90	0.07858193
234	0xbe9a42e5	-0.3012916
235	0x3e1b50e4	0.15167576
236	0x3da2b039	0.07943768
237	0xbe52d3e1	-0.20588638
238	0x3e401b79	0.1876048
239	0x3df8a789	0.1214133
240	0xbe39d0ca	-0.18146053
241	0xbd6960dd	-0.05697714
242	0x3c712430	0.0147181
243	0x3da31094	0.079621464
244	0xbd7763aa	-0.06039778
245	0xbca617ea	-0.020275075
246	0xbdbe8f3b	-0.09304663
247	0x3ccb38fb	0.024807444
248	0x3d1e8697	0.038702574
249	0x3dd921a6	0.10602121
250	0xbda0bfb9	-0.07849068
251	0xbe51359e	-0.2043061
252	0x3d0f1e0f	0.034940775
253	0xbdb3cd39	-0.087793775
254	0x3bf0c75d	0.0073479847
255	0x3e04b685	0.1296025

fc2.bias f4 [36]
0	0x3da6ca46	0.08144049
1	0xbd8d559a	-0.06901093
2	0xbd9e946a	-0.077431515
3	0xbd82fc25	-0.06395749
4	0xbb77320c	-0.003771904
5	0xbdabd331	-0.08389891
6	0xbdcd5591	-0.10026086
7	0xbe23a9c0	-0.15982723
8	0x3d2968a3	0.041359555
9	0xbe030a62	-0.1279693
10	0x3d461c17	0.048366632
11	0x3cd52f3b	0.026023498
12	0xbda352f6	-0.07974808
13	0xbd7ed832	-0.0622179
14	0x3de0c734	0.10975495
15	0xbdf1bc5e	-0.11803506
16	0xbc48937a	-0.012242192
17	0xbd0ce49a	-0.0343977
18	0x3e18c41c	0.1491856
19	0xbdf4270c	-0.1192151
20	0xbc85a919	-0.016315984
21	0x3d74213c	0.059602007
22	0x3e365a45	0.17807873
23	0x3e185b25	0.14878519
24	0xbe063253	-0.13105135
25	0xbdec734d	-0.115454294
26	0x3c16b4d9	0.009198391
27	0xbd5bb35a	-0.05363784
28	0xbdbe2fe8	-0.09286481
29	0xbd3cd400	-0.046100616
30	0xbc173fa4	-0.009231482
31	0xbdf8f01d	-0.12155173
32	0xbd47fc12	-0.048824377
33	0xbd2105e6	-0.039312266
34	0xbd800549	-0.06251008
35	0xbd9d6044	-0.07684377
